DQN/Models/_23_22_5_policy_net.pth (torch, 23296 bytes, 6 tensors)

layer1.weight f4 [64, 7]
00000000: 3493 a63e 937c 15be 01b7 cb3d 04c6 543e
00000010: 0410 b43d 7ccb bcbe 8d47 89be e69d 893e
00000020: 151e b9be af42 50bc 9c05 c83d 6fe8 333e
00000030: c073 70bd 9807 a13e 91b9 823d 30b3 a63d
00000040: c3ed bbbe a24a 6cbe 6a57 9abe 51c7 43bd
00000050: 4fa4 aa3e 0023 88be 6778 b1bd daf2 df3c
00000060: 7f3c 92bd df38 82bd b087 b9bd 628d 9c3e
00000070: a91b f3bd b1fb c93d fed5 bd3e a3a4 4f3e
00000080: f2e6 3fbe d255 cdbd 8e7a 0c3e 59c2 973e
00000090: 3392 523c 185d 613e ae5d afbe 7cef ee3d
000000a0: 6ca5 a5be a9a7 283e 275c b6be 8e1c aa3e
000000b0: d4e3 003d 2f45 8abe 2a45 edbd c4f2 b2be
000000c0: 7c57 afbe d647 f43d 9882 583e f619 9ebe
000000d0: 10a2 bebc aaf2 b93e 27eb 813e 9219 c03d
000000e0: 505e e3bd 37bb 84be 59d8 2abe 8981 863d
000000f0: 6fac 643d 4ba4 4c3d b022 b5be e0fb e13a
00000100: 8540 b3be 5266 1cbe c456 8dbe b4c6 b1be
00000110: a849 933c ecbb a13e 69cd 053e 517e a7be
00000120: 4819 b3be b45e 403e 0235 4dbd 5872 2bbe
00000130: 216e b83e 7979 91be c66d 37be e4bf b53e
00000140: e33e ad3e 0d32 99be 0654 803e 2a45 af3e
00000150: 7cd1 2ebd cced 02bd 5d62 d8bd e3a6 a73e
00000160: 62ea 19bd e375 ad3e 0c81 0e3d 7ade 54be
00000170: 7963 0abe 1497 bf3d 5361 53bd 837a 813e
00000180: 6479 8fbe c4bd 83be 3d69 f1bc 38ff 91bc
00000190: 3e1e cabd 4275 b5be aa25 57be d4da 833d
000001a0: 6da4 00bc aaa2 00be 8625 533e 69e5 e4bd
000001b0: a1a8 6dbe 0d5b c3bd a190 e43d e1c8 9e3e
000001c0: c66a 17bd fed4 253c bc84 b4be f37e 133c
000001d0: 7bee bf3d 4e06 d73d 37dd 29bd 9308 2f3d
000001e0: 8628 43bc aa9c 533e 5d5d ab3e 1916 3dbd
000001f0: 2795 403e 6ab6 babe 25c6 4bbd f6b8 7dbe
00000200: ca71 093e 62c9 47be 0585 d53d 8c0d 9fbd
00000210: c8fb ad3e 0d90 9fbe 8990 61bc 207f 64be
00000220: 850e be3e e16d 193e fed1 bfbd 4498 bfbe
00000230: 1c63 323e bacf 823e 3d07 443e c421 b7be
00000240: 4639 27be a62a f9bd 7675 353e 8cf8 e43d
00000250: 212a 32be 3ea3 33be 480a 853e 0072 523e
00000260: b1d3 2bbe e268 91ba dad7 87bc 8170 a83d
00000270: 52bc 01be f7ca d63d 9160 f7bd a748 033e
00000280: 61cb bd3c 0276 483e 1674 b1be 8c4b d93d
00000290: ab02 52bd e710 89bd a603 9fbc 1307 0f3e
000002a0: 8153 f3bd 5b3f b83d 7254 9c3e 4b51 773e
000002b0: a9b9 1ebb 3730 8e3d 6b3d b1be 5462 aebe
000002c0: 3784 013e 2147 9c3e 1a26 143d 4d55 363e
000002d0: b1a0 613d f53f a33e 0288 a63e 26b8 62bd
000002e0: 2fb0 83be a520 8bbe 13c4 adbe dc8d a13e
000002f0: cf40 c3bc bd49 c83d 7d8e e9bd 9930 4b3e
00000300: eea6 42be fdac d33d 23af d53d 6507 8abe
00000310: d404 9abe d5ea 4cbd 9ac8 6e3d 32e0 813e
00000320: 2534 0cbe 129e 623d 4d3c 99be 8e0c 3e3e
00000330: d784 343e c78f 05be 4dc4 ab3e 1fee 963e
00000340: 41fc 0cbd ec87 30be b227 963e 0b8b 513d
00000350: 7b99 96be 3613 81be cb6f 623e e213 a1be
00000360: 6127 183e b24a 36be 0d6d 7c3b 6ce8 99bd
00000370: bba4 5e3e 808d 303e 89e2 a23e 137b b9bd
00000380: 8cb8 a5be bd1d 1e3e 2a36 9a3e c61e 913e
00000390: cf2e 813e 23d7 d8bd cf9d 1fbd be27 65bc
000003a0: 19b2 adbe d730 083e f315 a63e 5f87 183e
000003b0: 0f15 b83e 7fa1 21bd 4287 ba3e 0177 a03e
000003c0: 88e0 4e3d 1f3b a1be 4ee1 b43e 4e7a b1be
000003d0: c167 78be b3c6 7abe b6e0 2dbe 8f6d ec3d
000003e0: b9d4 473e 373d bcbe f664 383e b972 85bd
000003f0: 2a30 063e 32d5 13be 5ce1 17bd b3d4 953e
0.32534182 -0.14598303 0.099470146 0.20778662 0.08792117 -0.36873996 -0.268124 0.2687828
-0.36155763 -0.012711211 0.09766695 0.17569135 -0.058704138 0.31451106 0.0638305 0.08139646
-0.36704835 -0.23075345 -0.30144817 -0.047797505 0.33328483 -0.26589203 -0.08665543 0.02733748
-0.07140445 -0.063585036 -0.090590835 0.30576617 -0.1187051 0.098624595 0.37077326 0.20277648
-0.18740442 -0.100261346 0.13718626 0.29640463 0.012852239 0.22008169 -0.3425116 0.11666772
-0.3235277 0.16470207 -0.35617182 0.3322491 0.031467274 -0.27005908 -0.115854576 -0.3495084
-0.34246433 0.11927764 0.21143568 -0.30879182 -0.023270637 0.3631795 0.2537472 0.09379877
-0.11101973 -0.25924084 -0.16684093 0.065676756 0.055828508 0.04996137 -0.35378027 0.0017241202
-0.35010162 -0.15273407 -0.2760526 -0.3472191 0.017979458 0.31588686 0.13066639 -0.3271356
-0.34980226 0.18786126 -0.05009938 -0.16742837 0.36021522 -0.2841299 -0.17912969 0.35497963
0.3383704 -0.29920998 0.25064105 0.34232455 -0.04268025 -0.031965062 -0.10565636 0.32744512
-0.03757704 0.33879003 0.034791037 -0.20787993 -0.13514508 0.09354988 -0.051606487 0.25288782
-0.280223 -0.25730717 -0.029469127 -0.017821893 -0.098690495 -0.35441023 -0.21010461 0.064382225
-0.007851702 -0.12562051 0.20619783 -0.11176569 -0.23208858 -0.09538851 0.11160398 0.31012633
-0.03696706 0.010121582 -0.35257518 0.009002435 0.093716584 0.104992494 -0.041470733 0.042732786
-0.011911517 0.20665231 0.33469668 -0.046163652 0.18806897 -0.36467296 -0.049749512 -0.24777588
0.13422313 -0.19510415 0.10425762 -0.07766256 0.33981156 -0.3116459 -0.01376737 -0.2231412
0.37120453 0.14983322 -0.09366225 -0.37420857 0.1742062 0.25549108 0.19143386 -0.3576795
-0.16330442 -0.12166338 0.17720589 0.11180219 -0.17398883 -0.1754274 0.25984406 0.205513
-0.16779973 -0.001109388 -0.016582418 0.082245834 -0.12669495 0.10487931 -0.120789655 0.12820683
0.023168268 0.19576266 -0.3465888 0.106101125 -0.051272076 -0.06692677 -0.01941092 0.13967542
-0.118811615 0.08996459 0.30533177 0.24152105 -0.0024219549 0.0694279 -0.3461717 -0.34059393
0.12648092 0.30523017 0.03616915 0.17805977 0.055084888 0.31884733 0.3252564 -0.0553514
-0.25720355 -0.27173343 -0.33938655 0.31553543 -0.023834614 0.097796895 -0.114041306 0.19842757
-0.19008991 0.10335729 0.10433795 -0.26958767 -0.3008181 -0.05002864 0.058296777 0.2536636
-0.13691767 0.05532653 -0.29928818 0.18559477 0.176288 -0.13043128 0.33548203 0.29478547
-0.034420256 -0.1723935 0.2932716 0.051157992 -0.2941397 -0.2520997 0.22112958 -0.31460482
0.14858772 -0.17801932 0.0038517148 -0.07515034 0.21742527 0.17241478 0.31813458 -0.09056678
-0.3236736 0.15441032 0.3011945 0.2834379 0.25231025 -0.10587909 -0.038968857 -0.013986526
-0.3392494 0.13299881 0.3243862 0.1489539 0.35953566 -0.039460655 0.3643132 0.31340793
0.0505071 -0.31490418 0.35328144 -0.34663624 -0.24258329 -0.2448986 -0.16980252 0.11544334
0.19514741 -0.36765453 0.18007264 -0.06516022 0.1310431 -0.14436796 -0.037080154 0.2926384

layer1.bias f4 [64]
00000000: 1182 d2bd 342e 1e3e 80fd 9c3e 3e58 463e
00000010: a5d8 233e 48d1 fdbd 2fe7 c7bd eb23 5b3d
00000020: 84a6 d6bc 507c bfbe 68e1 81be cc14 bdbd
00000030: 25b4 9cbd a417 9d3e cbb2 bb3e 7558 5abe
00000040: 9097 50be 12d2 8abe 180b a1be 6b34 adbe
00000050: 66d9 9cbe f2ad a8bd 8da6 65be 684d abbe
00000060: 52b6 053e 6a4e a93e cb07 053e 98a0 c93d
00000070: 8040 9f3e 8ba1 753e db28 01be 9284 943d
00000080: 9a28 b33e fce1 7a3d 5b51 d83d bb61 82be
00000090: 9de4 0dbe 0868 f1bd 65cc 483e 0bf6 e6bd
000000a0: 2831 14bc 3dbc 293d d38f 523e 96ca 19bd
000000b0: 4cd7 123e 1ed5 ac3e 4d64 74be 573e 3dbe
000000c0: 5a53 db3d 6069 8c3e c1dd 8cbe a466 453e
000000d0: 6d92 ae3e d3fa 39be 6489 d9bd da54 b93e
000000e0: 9b9c 603e 0f8f 09be 793f 12be bc1c 403d
000000f0: 62fc 4b3d 5486 db3d 7820 1abe 1eb3 483e
-0.102787144 0.15447313 0.30662155 0.19369599 0.16000612 -0.12393433 -0.09760892 0.05350105
-0.026202448 -0.3739953 -0.25367284 -0.09232482 -0.07651547 0.306821 0.36659846 -0.21322806
-0.20370317 -0.27113396 -0.31453776 -0.33829054 -0.30634612 -0.082363024 -0.22426815 -0.33457494
0.13057831 0.33067638 0.12991254 0.09845084 0.31103897 0.23987405 -0.12613241 0.07251848
0.34991914 0.06125067 0.10562392 -0.25465187 -0.1385674 -0.117874205 0.1960922 -0.11277398
-0.009044923 0.041439284 0.20562677 -0.037546717 0.14339942 0.33756346 -0.23866387 -0.18480812
0.107092574 0.27424145 -0.27512935 0.19277436 0.3409609 -0.18162088 -0.10621908 0.3619755
0.2193474 -0.13433479 -0.14282025 0.046902403 0.049801238 0.107189804 -0.15051448 0.19599578

layer2.weight f4 [64, 64]
00000000: 96aa 06bd 992a ddbc b050 d13d 3316 1b3e
00000010: c2a0 a43c 59fc c0bc 6970 133c 51bd 43bd
00000020: 252c ca3d 5bef d83b 01ba 84bd 4103 42bd
00000030: 93cb 43bb 4cbc b1bb 16fd 373e d477 e73d
00000040: b6b9 373c a127 37be adc2 1a3e 2103 be3d
00000050: 21fd 0fbd a05e 943d 6fdc bfbd f8fa d23d
00000060: 31f2 2ebe 21a9 e0bd 4df9 84bd 1c3d 293c
00000070: f5f1 223d dcb3 753b 3534 953d cb32 1fbe
00000080: 6a42 17be 7279 39bc 1c2f 94bd f8d5 1a3e
00000090: 3555 33bd 3c0b 0fbd 984d f8bc bf48 e03d
000000a0: be6a 4c3d 9d24 c3bd c961 7a3d 6118 5dbd
000000b0: 626d 513d b74f 1b3e 4ea0 193e ffec 8abd
000000c0: 20c2 183e dae0 31be da16 b93d f2b7 55bd
000000d0: b5c8 ffbc b8ca aa3d 6091 f83d 52d8 d33d
000000e0: d7c2 253e 44ff f93d 2ddc e03c 4d7e c0bd
000000f0: 4ea5 9e3d 79e4 7a3d f6c8 d0bd 7c5f 883d
00000100: 8daa d03d 8d72 3bbd 278e 71bd 967e 23bc
00000110: f77f a93d a54a b7bc 2035 19bd 4bde efbb
00000120: dd31 a5bd 16ba 2ebe b234 20be 987c 683b
00000130: cda9 ba3d 36ed b8bc ef26 dcbd 085c 9abc
00000140: 2cce 7abd 4aac 113e c68a e0bd fcea df3c
00000150: 5c50 e33d 6efb bebb 5d2a 7d3d e647 0b3d
00000160: eee6 a039 317d 333e 3a6a 133d 8223 cf3c
00000170: 3053 8a3c f941 1d3c fa30 5dbc 29c1 ecbc
00000180: 0072 9abc 8d41 7bbc 379f d03d 5783 423b
00000190: 1dfe 42bd 27b5 ffbd 5707 1e3e b49c ecbd
000001a0: 4ddf abbc d350 aa3d 035d 18bd 2647 1c3e
000001b0: 8570 353c 29f7 ffbd f8a8 723d 3ba6 103c
000001c0: 29cb 36be 753a 023e 5750 143d 2304 383e
000001d0: 49fe 153c 8bc1 1cbd 40d4 7b3d a1f0 bdbd
000001e0: 283c 2dbe f643 ddbd 7793 353e 1442 2d3e
000001f0: 9c36 35be bd1c 303e 44de 8b3d 0d9d 8e3d
00000200: 5672 133e 07b1 0e3e 1ff7 0cbd cee1 2abe
00000210: 7405 8cbc 9202 083d 6103 1d3d 276a 0b3e
00000220: cb1e 243d 2abb 15be f564 e13c b3ba e73d
00000230: 2c0d ef3d 34a0 223d 02b0 6cbc 43d0 8b3d
00000240: 902b 2bbb d992 9e3d 0601 913d 99a8 30be
00000250: 20e9 cc3c 6556 0dbe 18a8 023e 16eb aa3b
00000260: a66b 743c 435b 503d fbb5 28be f41e 233e
00000270: fb92 ed3c c0dc 8b3d 9c0c 07be 3992 2a3d
00000280: cc3f 0f3d dda9 cd3d 63c2 f63d 1797 ebbd
00000290: 2128 ad3c f6f4 21bd 7515 db3d af49 343c
000002a0: 9f6b 183d d829 9c3d 2861 683c d612 2a3e
000002b0: 0aca bf3b 2dfb 6dbd c49c 8ebd b189 163e
000002c0: bfdd a5bd 5b9c 783d 9320 2ebd c1c1 083e
000002d0: 6802 92bd 7620 563b 7c8c 15be 7d57 dcbc
000002e0: db45 b0bc e3c2 64bd c2a9 6bbd 66b9 50bd
000002f0: e5d5 e63c 9e47 9dbc d6c4 b43d 851c c83d
00000300: a4bc 623d 8804 49bc 7e3b f93c 3f11 663c
00000310: 45b9 e63b a367 c4bd d3eb 03be 6851 a23d
00000320: 4fb8 8fbd 1d38 f1bd c7a9 b53d b814 4f3d
00000330: 439e 89bd 13bd d6bd 2d47 093d f85e 05be
00000340: 5fbe d4bd 1566 d13d 682c 0abe f2d3 ab3d
00000350: ca09 063c bcf2 e4bd 39a2 f83d a835 0dbc
00000360: 8f0a 1c3e 0e06 a63d f0b3 22bc 0426 013e
00000370: 9071 2fbc 916d adbc fc34 c5bd 6174 b83d
00000380: 49d7 3fbd 1fd0 ee3d eb4c 103e a186 6fbd
00000390: 18c6 b3bd 9b5b 00be 36b0 db3d f64d aebd
000003a0: 66e8 933d 23a8 1d3e c120 593d f487 b53d
000003b0: 6e53 973d f040 0fbe c845 b7bd 93e2 eabc
000003c0: 0642 ad3a 4a70 073d dfe3 6aba c757 55bb
000003d0: b6a2 113d 0555 16be 8248 f2bc 0b63 cf3c
000003e0: bcd5 e4ba 6a7d 783d a50e 033e 7632 1a3e
000003f0: 6ece e03b b6bd 0d3c a9eb 4f3d d592 b33d
-0.032877527 -0.026997851 0.10220468 0.15145187 0.020096187 -0.023557829 0.008998969 -0.047787968
0.09871701 0.0066203303 -0.0648079 -0.047366384 -0.0029875978 -0.005424058 0.17967638 0.11302152
0.0112137105 -0.17886211 0.15113325 0.092779405 -0.035153512 0.07244611 -0.09368216 0.10301775
-0.17084576 -0.10969759 -0.06492863 0.010329511 0.03978153 0.0037491238 0.07285348 -0.1554672
-0.14771429 -0.011320459 -0.07235548 0.15120685 -0.04378243 -0.034922823 -0.030310437 0.10951375
0.049906485 -0.09528468 0.06112841 -0.053978328 0.051129706 0.15167128 0.15002558 -0.06783485
0.14917803 -0.1737093 0.09037562 -0.052177377 -0.031223634 0.08339447 0.12137103 0.10343994
0.16187607 0.12206891 0.027448738 -0.0939909 0.07746373 0.061253045 -0.1019458 0.06658837
0.1018878 -0.04576354 -0.058973458 -0.009978911 0.082763605 -0.02237446 -0.03740418 -0.0073202006
-0.08066151 -0.17063174 -0.15645102 0.0035474654 0.09114418 -0.022574048 -0.107496135 -0.018842712
-0.061231777 0.1422588 -0.10963969 0.027333729 0.11099312 -0.0058283126 0.06180798 0.034004115
0.00030689634 0.17528225 0.035989977 0.025285486 0.01688537 0.009598249 -0.013500446 -0.0289007
-0.018853188 -0.015335453 0.10186618 0.0029680335 -0.047605623 -0.12485724 0.15432487 -0.11553326
-0.020980502 0.08316197 -0.037198078 0.15261516 0.01107419 -0.12498314 0.059243172 0.008828695
-0.17850937 0.12717612 0.03620943 0.17970328 0.009154865 -0.038270514 0.061481714 -0.09274412
-0.16917479 -0.10803978 0.17732035 0.16919738 -0.17696613 0.17198463 0.06829503 0.06963549
0.14399084 0.13934718 -0.03441536 -0.166877 -0.017092444 0.033205576 0.0383333 0.13614713
0.04006843 -0.14622179 0.02751396 0.11314907 0.11672434 0.039703563 -0.01444626 0.06826832
-0.0026118495 0.07742853 0.07080273 -0.17251815 0.025013506 -0.13802488 0.12759435 0.0052160127
0.0149182435 0.050868284 -0.1647567 0.15929776 0.02900075 0.06829214 -0.13188404 0.041643355
0.03497295 0.100421645 0.12048795 -0.115034275 0.021137299 -0.039540254 0.10697452 0.011003896
0.03721201 0.076251686 0.01418332 0.16608748 0.0058529424 -0.058100868 -0.069634944 0.14700963
-0.08098935 0.060695987 -0.042511534 0.13355161 -0.07129365 0.0032673157 -0.14604372 -0.026897186
-0.021517685 -0.05584992 -0.05753494 -0.05095806 0.028178165 -0.019199189 0.08826606 0.09771065
0.055355683 -0.012269147 0.030423876 0.014042198 0.007041129 -0.0959008 -0.12882929 0.07925683
-0.07017576 -0.11778281 0.08870273 0.05055687 -0.06719639 -0.10485282 0.033515144 -0.13024509
-0.10387873 0.10224549 -0.13493502 0.08390035 0.008181045 -0.111791104 0.121403165 -0.00861875
0.15238403 0.081066236 -0.009930596 0.12612158 -0.010708228 -0.02117041 -0.096292466 0.090065725
-0.04683617 0.1166079 0.14091842 -0.058478 -0.08778018 -0.12534945 0.10726969 -0.085109636
0.07222061 0.1539617 0.053009752 0.088638216 0.0738896 -0.13989615 -0.089488566 -0.028672492
0.0013218529 0.03306607 -0.0008960347 -0.003255354 0.035555564 -0.1468087 -0.02957559 0.025315782
-0.0017458717 0.06066648 0.12798555 0.15058312 0.006860546 0.008651188 0.050761852 0.0876824

layer2.bias f4 [64]
00000000: f743 02be e802 333e a54e 173e 7c29 973d
00000010: 6b8b 373d 9cdd 1cbe 740a 83bc 7870 743c
00000020: ad1c dfbd 78d0 ad3d 2c7d 2c3e d1c8 c3bd
00000030: 385c ab3d 6e64 60bd 6eea 29bd 3e05 6c3d
00000040: ae69 7d3d 3717 e3bd e62a 4abd 7c59 31be
00000050: c98c cb3d ac74 b13d c357 bebd cd19 32be
00000060: 62a0 3b3e c116 4fbd 5679 703d def1 e03d
00000070: 263b 8ebd 2aa5 013e e515 033e 20da f53d
00000080: aa53 8fbd 26bf 2e3e f83f c53d 58f5 0e3d
00000090: 6e0f 593d 1871 b63d ae46 b23d 46b4 b23c
000000a0: ec5d d33b eeb6 b0bb 1d00 c83d 96d8 723d
000000b0: b753 523d 77df 913c 74ae 11be bfa5 4f3d
000000c0: a816 52bd 9f02 f13d f7de 18be cb2e 76bd
000000d0: 3e05 69bc 0a41 5dbd 6c67 5aba 0a04 65bd
000000e0: 5791 0bbd b5d9 a2bc f413 273e 99af 703c
000000f0: 9024 f03d 2a79 94bd fb02 cebd 98ea 053e
-0.12721239 0.17481577 0.14776094 0.073809594 0.044810694 -0.15318912 -0.015996195 0.014919393
-0.10894141 0.08487028 0.16844624 -0.09559787 0.08367199 -0.054783277 -0.041483335 0.057622187
0.061868362 -0.11088412 -0.049357317 -0.17319292 0.09938962 0.086648315 -0.09294083 -0.17392655
0.183229 -0.05055881 0.058709465 0.109836325 -0.069448754 0.12660661 0.12801321 0.12004495
-0.069983795 0.17065105 0.09631342 0.034901947 0.05299323 0.0890829 0.08704887 0.021814477
0.0064504053 -0.0053929007 0.097656466 0.059288584 0.051349368 0.017806752 -0.14226705 0.050695177
-0.051291138 0.11768078 -0.14928804 -0.06010322 -0.014222441 -0.054017104 -0.0008331451 -0.055912055
-0.034074154 -0.019879201 0.16316205 0.014690303 0.11725724 -0.07249673 -0.10059162 0.13077772

layer3.weight f4 [7, 64]
00000000: e3ab 9dbe c01d 813e 0168 5d3e 0ef1 cd3e
00000010: 9bba a9be 918c cdbe 3769 80be 0e6d 1d3e
00000020: b433 45be f1d9 2b3e 2119 bc3e 6673 b5be
00000030: 33eb 5c3e 020d bf3e 9c40 ac3e 007c 8dbe
00000040: 7812 63be 0fa7 80be 9416 dd3e 0817 acbe
00000050: 4b3d df3e 5b49 8e3e 5725 81be 976d 9dbe
00000060: 3908 b13e 379d a6be 7812 3d3e 8a41 843e
00000070: ca57 5fbe 3c17 5f3e 82dc 9c3e 73c3 5c3e
00000080: 03dc 97be 68e5 b93e 70b5 af3e ec83 883e
00000090: 4fe2 903e 068e a43e dac7 aa3e 548b 85be
000000a0: 074c d53e c26f 6c3e 0ae1 d63e 365a c13e
000000b0: 9b30 8fbe 6eb1 ac3e 349a 76be 57e0 bbbe
000000c0: 04b2 a13e 3aa8 9e3e 2332 84be 624a b53e
000000d0: 4c4a 393e 985e 60be e9a8 b8be 90f1 9ebe
000000e0: 714c 91be d526 a0be b62d 4c3e 24e8 94be
000000f0: a78e a93e acfb c8be f160 b3be 2132 a33e
00000100: c5a0 45be 48cf a93e 22ba 823e 8d56 dd3d
00000110: 695c adbe 017d 87be 2d78 bebe a3bd 903e
00000120: 5e60 80be f074 2c3e c648 c83e 9af6 bbbe
00000130: 2a6c 813e 9321 cc3e c488 9b3e 20f5 b1be
00000140: 7a24 66be 3aec 86be 4d9a 793e 2d99 bebe
00000150: 35ca be3e 3d41 553e 5ee6 c4be d697 c3be
00000160: aad6 6f3e c9e1 a6be 6595 a03e 2c8f a43e
00000170: c2e9 5ebe d031 7a3e d1dd 893e 468d bf3e
00000180: 1218 b6bd d27d 213e 8625 c73e 2e7e 363e
00000190: ccb4 c13e bfe3 c03e bef5 a03e 2760 45be
000001a0: 2aca 9c3e d393 323e c412 023e 9aa8 1d3e
000001b0: 3f10 a8be 400f 023e 4029 a7be 89ef 29be
000001c0: 00ae c53e 4e4e 1d3e 1693 abbe 6f4e 9b3e
000001d0: 8bbb a53e 3f23 39be 93d7 0abe 0f44 9cbe
000001e0: 1d91 c3be b5ac 68be c575 ca3e fb92 c4be
000001f0: 56a8 a03e 1a9a 8abe 974e 78be 9a31 a53e
00000200: 076f 98be defc d43e 14a9 ef3e de0b ab3e
00000210: 36a0 63be 5a6e a6be 76d7 77be 1006 b13e
00000220: 212f 89be f588 d13e c9ec 5a3e 8ca1 79be
00000230: 0602 b13e a48b c33e 2dde ae3e 607a 78be
00000240: 6027 93be 500d 82be 14d5 d23e 4ef3 95be
00000250: 2656 943e 9bdf 943e a937 c8be 2baa a5be
00000260: 6266 b03e 0896 e3be 8ef9 7c3e df0f 9e3e
00000270: 2415 b4be 34c1 7a3e 97df 923e 605a 853e
00000280: c55d b0be 73ee bc3e d20f b83e 7aa2 8b3e
00000290: 3d1f 153e 0f73 b53e 0f7a cf3e 11f2 e9be
000002a0: def6 a83e 2d47 de3e 502a 893e de14 cf3e
000002b0: 33fb c8be 1ee6 bc3e 2106 eabe da80 a7be
000002c0: 3618 963e f0f7 be3e b6a0 e8be a774 643e
000002d0: 47dc c43e c521 b9be 8399 adbe e018 9bbe
000002e0: 5498 91be ebc4 78be d2c9 d03e 046f 85be
000002f0: 0c5c 683e 8ffb 78be ed4f 8cbe f8fc b13e
00000300: a207 cebe b238 7e3e 0d2f 5c3e 7301 5c3e
00000310: 8a4f 9ebe 5c9c 7bbe 962e 89be 129c 6c3e
00000320: f9a4 bebe 221f d33e 09f1 bf3e a4df d8be
00000330: cfad a43e e129 963e 5d1d e63d 3d68 afbe
00000340: 4a2f a7be b72f bdbe 6ddd 963e c1ed 95be
00000350: 1ecb c43e 8c97 d03e ffc8 d1be 506a 84be
00000360: 51cf a53e b82e 7cbe d0dd 7b3e 23d8 c33e
00000370: 6006 c0be 872b a53e d136 d23e 8757 423e
00000380: e565 79be 1a53 4b3e b3db 9e3e c4a0 b93e
00000390: 20f6 4b3e 8383 a43e 2e69 ad3e f9b8 c9be
000003a0: 8967 383e 2111 993e da9f 8d3e 6a43 873e
000003b0: 4aca c7be 0120 453e f436 8cbe 3fab 3ebe
000003c0: 421c 913e ac3c a63e 5dd5 a9be d442 b33e
000003d0: dd38 d03e b267 c8be 7e99 02be d932 d1be
000003e0: 0ced 64be 171d cbbe 3e8e 4f3e 6166 c8be
000003f0: 6711 ce3e 9216 4cbe 3625 9ebd 3ea3 f53d
-0.30795202 0.2521801 0.21621706 0.40222973 -0.3315018 -0.40146306 -0.25080273 0.15373632
-0.19258004 0.16782357 0.36737922 -0.35439605 0.21574096 0.37314612 0.33643043 -0.27633667
-0.22175014 -0.25127456 0.43181288 -0.3361132 0.4360145 0.2779034 -0.252238 -0.30747673
0.34576586 -0.3254182 0.18464077 0.25831252 -0.21810833 0.21786207 0.30636984 0.21558933
-0.29660043 0.36307836 0.34318113 0.26663148 0.2829766 0.32139605 0.333556 -0.2608286
0.41659567 0.23089507 0.41968566 0.37764138 -0.2796677 0.33729118 -0.24082261 -0.36694595
0.31581128 0.30987722 -0.258195 0.35408312 0.18094748 -0.21911085 -0.36066368 -0.31043673
-0.28378633 -0.31279626 0.19939312 -0.2908336 0.33116648 -0.3925451 -0.35034898 0.31874183
-0.1929961 0.33165956 0.25532633 0.10807524 -0.33859566 -0.26462558 -0.37201062 0.2826968
-0.25073522 0.16841483 0.39118022 -0.3671158 0.25277835 0.39869365 0.3037778 -0.34757328
-0.22474852 -0.26352102 0.24375267 -0.3722624 0.37263647 0.20825668 -0.38457006 -0.3820178
0.23421732 -0.32594135 0.3136398 0.3214048 -0.21768859 0.24433064 0.26927045 0.3741247
-0.0889131 0.15770653 0.38895816 0.17821571 0.3783325 0.37673756 0.31437486 -0.1927496
0.3062299 0.17439203 0.12702471 0.15396348 -0.32824895 0.1270113 -0.3264866 -0.16595282
0.38609314 0.15361902 -0.33510655 0.30333278 0.32369646 -0.18079852 -0.13558798 -0.30520675
-0.3819665 -0.22722133 0.39542976 -0.38393387 0.3137843 -0.27070695 -0.2424873 0.32264405
-0.29772207 0.41599172 0.46808684 0.3340749 -0.22229084 -0.32506067 -0.24203286 0.34574938
-0.2679377 0.40924802 0.21379389 -0.24378031 0.34571856 0.38192475 0.34153882 -0.24265432
-0.28740978 -0.25400782 0.4117819 -0.2928719 0.28971976 0.29076847 -0.39104965 -0.3235639
0.34453112 -0.44450402 0.24704573 0.30871484 -0.3517238 0.24487764 0.2868621 0.26045513
-0.3444654 0.36900672 0.3594957 0.27272397 0.14562698 0.35439345 0.4052281 -0.45692495
0.33000845 0.43413678 0.26790094 0.40445608 -0.3925415 0.36894315 -0.457078 -0.32715493
0.29315346 0.37298536 -0.45435113 0.22310124 0.38449308 -0.36158577 -0.33906183 -0.30292416
-0.2843653 -0.24293868 0.40778977 -0.2606126 0.22691363 -0.24314712 -0.2740473 0.34763312
-0.40240198 0.24826315 0.21502323 0.21484928 -0.30920058 -0.24571365 -0.26793355 0.23106411
-0.3723524 0.4123469 0.37488583 -0.42358124 0.32163855 0.29328826 0.11236069 -0.34259215
-0.32653266 -0.36950466 0.2946581 -0.29282954 0.38436216 0.4074062 -0.4097366 -0.2586236
0.32384732 -0.24627197 0.24596334 0.38250837 -0.37504864 0.3225977 0.41057447 0.18978702
-0.24355276 0.1985592 0.31026992 0.36255467 0.19918108 0.32131585 0.33869308 -0.39398935
0.18008246 0.2989588 0.2766102 0.2641862 -0.39021522 0.1925049 -0.27385676 -0.18620013
0.28341872 0.32468164 -0.33170596 0.35011923 0.40668383 -0.39141613 -0.12753865 -0.40859106
-0.22356051 -0.3967063 0.20269105 -0.3914061 0.40247652 -0.19930485 -0.07721941 0.119940266

layer3.bias f4 [7]
00000000: e85e 6b3e 56a5 7b3e a360 7a3e 2324 a83e
00000010: ad2a cc3e f4cc bf3e 3833 8c3e
0.22985423 0.2457479 0.24450926 0.3284007 0.3987631 0.37461054 0.27382827
