DQN/Models/_24_16_52_policy_net.pth (torch, 76554 bytes, 6 tensors)

layer1.weight f4 [128, 7]
0	0xbe35e788	-0.17764103
1	0xbe4507e4	-0.19241291
2	0xbd6653ea	-0.05623237
3	0x3e3435d1	0.17598654
4	0x3d5fe612	0.05466277
5	0xbe68c7c3	-0.22732453
6	0xbd141d05	-0.036160488
7	0xbdcbeac2	-0.09956886
8	0xbe787fed	-0.2426755
9	0xbe3e4419	-0.18580665
10	0x3e5d1160	0.2158866
11	0xbe838dd8	-0.25694156
12	0x3e115cda	0.14195576
13	0xbe7ec0eb	-0.2487828
14	0xbdddf3b0	-0.10837495
15	0x3ded2c1a	0.11580677
16	0xbd820cae	-0.06350075
17	0xbd350351	-0.044192616
18	0x3e2d694f	0.16934703
19	0x3e287ab8	0.16453063
20	0x3d6a3fc8	0.057189733
21	0x3dd50c26	0.10402708
22	0xbe2aa4eb	-0.16664474
23	0x3e79639c	0.24354404
24	0xbe1bb81b	-0.1520695
25	0x3db327f7	0.08747857
26	0xbe0e2853	-0.1388257
27	0x3dd302a4	0.10303238
28	0xba4bc620	-0.00077733584
29	0xbe276951	-0.16348769
30	0x3d3ec8ea	0.046578325
31	0x3e5ea6be	0.21743295
32	0xbe8d026f	-0.2754092
33	0xbe7cedea	-0.24700132
34	0xbe08fbf9	-0.1337737
35	0xbe5db0a4	-0.21649414
36	0xbe70c1ad	-0.23511381
37	0x3e1453d1	0.14485098
38	0x3dc92e73	0.098233126
39	0xbdd786d8	-0.10523766
40	0xbe16e39f	-0.14735268
41	0x3e572cc6	0.21013173
42	0x3e73a4ed	0.23793383
43	0xbe690ec9	-0.22759546
44	0x3df25463	0.11832502
45	0xbe823f17	-0.2543876
46	0xbe32aee8	-0.17449534
47	0xbe2e7849	-0.17038073
48	0xbdfd4ce0	-0.12368178
49	0x3deb93bd	0.11502788
50	0x3e20779c	0.15670627
51	0xbdb34f1d	-0.08755324
52	0xbdd777e8	-0.10520917
53	0x3de78b68	0.113058865
54	0x3d886c2d	0.06661258
55	0xbe3e7cc6	-0.18602285
56	0x3e805b0b	0.2506946
57	0x3d856113	0.06512656
58	0x3dbfd711	0.093671925
59	0x3e356ff2	0.17718485
60	0xbe77a3b0	-0.24183536
61	0xbdf1fc10	-0.11815655
62	0xbe746e16	-0.2387012
63	0xbdc1e642	-0.09467746
64	0xbd85e68a	-0.065381125
65	0x3d804082	0.06262304
66	0x3d7438f1	0.059624616
67	0x3d01efc7	0.03172281
68	0x3e5098cc	0.20370787
69	0x3f227941	0.6346627
70	0xbe299551	-0.16560866
71	0xbe4db194	-0.20087272
72	0x3dd907e3	0.105972074
73	0xbd97d09b	-0.07412835
74	0xbd2f939f	-0.04286539
75	0xbdcc6d56	-0.09981792
76	0xbe407d51	-0.18797804
77	0x3e21c185	0.15796478
78	0x3d502669	0.05081788
79	0x3dcf8d32	0.10134353
80	0x3d5c6596	0.053807817
81	0xbdc1766b	-0.094464146
82	0xbe6e1da7	-0.23253499
83	0xbd660883	-0.05616046
84	0xbd96f0cd	-0.07370148
85	0x3d99c10b	0.07507523
86	0x3e02b885	0.12765701
87	0xbde5d01c	-0.11221334
88	0x3e1042ff	0.14088057
89	0xbd9238b1	-0.07139719
90	0xbe9a18e2	-0.3009711
91	0xbd75742c	-0.059925243
92	0xbdba4df8	-0.090969026
93	0xbd8e81f1	-0.06958378
94	0xbdf90d40	-0.1216073
95	0x3e7b1d89	0.24522986
96	0x3e06f639	0.13179864
97	0x3f037ffa	0.5136715
98	0x3e3dfc19	0.18553199
99	0x3e316bd5	0.17326291
100	0xbd940e44	-0.072292835
101	0xbe5bb02e	-0.21453926
102	0xbdf600ba	-0.12011857
103	0xbd1a10c9	-0.037613664
104	0xbe30e1aa	-0.17273584
105	0x3e11b162	0.14227822
106	0xbd41c93d	-0.047311056
107	0xbd80aec1	-0.06283332
108	0xbe077c6f	-0.13231061
109	0x3dac4b20	0.084127665
110	0x3dae8554	0.08521524
111	0x3d814949	0.06312806
112	0xbd889532	-0.06669082
113	0x3dd1cbc2	0.10243942
114	0x3df3829a	0.11890145
115	0x3e38d04c	0.18048209
116	0xbdedbd0c	-0.116083235
117	0x3dd224de	0.10260938
118	0x3dc8609f	0.09784054
119	0x3e80a6c7	0.2512724
120	0x3e1f0a3a	0.15531245
121	0xbd89ab96	-0.067221805
122	0xbe8405e7	-0.25785753
123	0x3e805485	0.25064483
124	0xbd3c8bf5	-0.04603191
125	0xbe2d0a96	-0.1689857
126	0xbe3f082d	-0.18655463
127	0xbe8197b1	-0.25311044
128	0x3e663328	0.22480452
129	0xbdc9a647	-0.09846168
130	0x3dd84c08	0.10561377
131	0x3e8bd6f3	0.2731243
132	0x3f0bc961	0.54604155
133	0x3e027f8c	0.12743968
134	0x3de953e7	0.11392956
135	0x3dfcd60f	0.12345516
136	0xbbf5daf7	-0.0075029093
137	0x3d54aa2a	0.051920094
138	0x3e68a6a1	0.22719814
139	0xbecd3334	-0.40078127
140	0x3e83ebaf	0.2576575
141	0x3e53b6d9	0.2067522
142	0xbe3a34dc	-0.18184227
143	0x3e6d3ce5	0.2316776
144	0x3e3c61f7	0.18396746
145	0x3e2352fb	0.15949623
146	0x3d696983	0.05698539
147	0x3d5939ef	0.053033765
148	0x3d338efe	0.04383754
149	0x3d978774	0.073988825
150	0x3e457c92	0.19285801
151	0x3e01d0cb	0.12677304
152	0xbe08af15	-0.13348038
153	0x3cdd6246	0.0270244
154	0xbbbcb8c7	-0.005759332
155	0xbe73115d	-0.23737092
156	0xbe577ed2	-0.21044472
157	0x3e25413b	0.16138165
158	0x3e0c0375	0.13673194
159	0xbdb50638	-0.08839077
160	0xbdbd7ad0	-0.0925194
161	0xbdc2bfc9	-0.09509236
162	0x3de6d698	0.11271399
163	0x3e12679f	0.14297341
164	0xbdbd9847	-0.0925756
165	0xbdc70458	-0.097176254
166	0xbe044651	-0.12917449
167	0x3e6f7803	0.23385625
168	0xbe23845e	-0.15968463
169	0xbe851138	-0.259897
170	0xbe88184d	-0.2658104
171	0xbe8670ca	-0.26257926
172	0xbe0d02bf	-0.13770579
173	0x3caf4b67	0.02139826
174	0xbe1cf775	-0.15328772
175	0xbe13497f	-0.14383505
176	0xbcc206bc	-0.023684852
177	0x3e801b97	0.2502105
178	0x3c918951	0.017765673
179	0xbe422884	-0.18960768
180	0x3df8d9b9	0.12150902
181	0x3ed888f3	0.42291984
182	0xbe7b46ad	-0.2453868
183	0xbd8802a0	-0.06641126
184	0xbe88727e	-0.2664985
185	0xbcd5ce3a	-0.026099313
186	0x3e316243	0.1732264
187	0xbe78ac17	-0.24284397
188	0x3df0159c	0.11722872
189	0x3d8f6531	0.070017226
190	0xbdd112e5	-0.10208682
191	0xbe6b4d3d	-0.22978683
192	0x3e407b28	0.1879698
193	0xbe225a32	-0.1585472
194	0xbda63eb2	-0.08117427
195	0x3e08e4ea	0.13368574
196	0xbe355e34	-0.17711717
197	0x3d687221	0.056749467
198	0xbe2a4374	-0.16627294
199	0x3dc83d96	0.097773716
200	0x3e14e1c6	0.1453925
201	0xbd945643	-0.072430156
202	0xbe576b9c	-0.21037143
203	0xbe880154	-0.26563513
204	0xbe60d2f1	-0.21955468
205	0x3d967ac4	0.073476344
206	0x3c23d8e0	0.0100004375
207	0x3d35e020	0.044403195
208	0x3e0141e4	0.12622792
209	0x3e458fa2	0.19293073
210	0xbd0240b4	-0.031799987
211	0x3e8407a7	0.25787088
212	0xbe89cd5a	-0.26914483
213	0x3c17c981	0.009264351
214	0xbe5f71a1	-0.2182069
215	0xbe89fb08	-0.26949334
216	0xbe24dd68	-0.16100085
217	0x3c729f3a	0.01480847
218	0xbdf7b768	-0.12095529
219	0xbcef9248	-0.029244557
220	0x3d7fa480	0.06241274
221	0xbdea6991	-0.114459164
222	0xbd39a955	-0.045327503
223	0xbe6a0f95	-0.22857507
224	0xbdbea3f6	-0.09308617
225	0x3e084c94	0.13310462
226	0xbe1e53a1	-0.1546159
227	0xbd81ad7b	-0.06331917
228	0x3e5891ff	0.21149443
229	0x3d73f0e0	0.05955589
230	0xbd91ccdc	-0.07119152
231	0xbe04c39f	-0.12965249
232	0x3e089e41	0.13341619
233	0x3e2afe1e	0.166985
234	0x3da147bb	0.078750096
235	0xbcc22668	-0.023699954
236	0xbdd1ebbe	-0.102500424
237	0x3f0aad81	0.54170996
238	0x3bf3f365	0.0074447864
239	0xbe3dd76e	-0.18539211
240	0x3e867ac8	0.2626555
241	0xbe5f6ff3	-0.21820049
242	0x3d5ea343	0.054354917
243	0xbd897843	-0.06712391
244	0xbda4e564	-0.08051565
245	0x3ddb8669	0.10718996
246	0xbd0f9af6	-0.03505989
247	0xbd007e9e	-0.03137075
248	0x3c6d9136	0.014499953
249	0xbdb9c924	-0.09071568
250	0x3ddada5d	0.10686181
251	0xbedf9197	-0.43665764
252	0xbd0fbe04	-0.035093322
253	0xbe7e3ce9	-0.24827923
254	0xbcb17afc	-0.021665089
255	0x3e6af243	0.22943978

layer1.bias f4 [128]
0	0x3d48c105	0.049012203
1	0x3dabf4f9	0.08396334
2	0x3c39b65e	0.011334984
3	0xbe68b7df	-0.22726391
4	0xbe5f1b67	-0.21787797
5	0xbe061538	-0.13094032
6	0xbe3ccde5	-0.18437918
7	0xbe5d54b0	-0.21614337
8	0xbe0a1ee9	-0.13488354
9	0x3e8794ef	0.26480815
10	0xbdc7aa3f	-0.09749269
11	0x3d6ee186	0.058320545
12	0xbe618dae	-0.22026703
13	0x3e1d5092	0.15362766
14	0x3e67cecb	0.22637479
15	0x3e191a82	0.14951518
16	0xbe2152ee	-0.15754291
17	0xbe80b159	-0.25135306
18	0xbdcb2e2a	-0.099209145
19	0xbe8d1dc2	-0.27561766
20	0xbe1ceef7	-0.15325533
21	0xbe81daeb	-0.25362334
22	0xbe8c49da	-0.27400094
23	0xbe073c00	-0.13206482
24	0xbd87a43b	-0.06623121
25	0xbd6ba475	-0.057529885
26	0x3e6716ee	0.2256734
27	0xbde6b46f	-0.11264884
28	0x3e00b5b4	0.12569314
29	0x3e752013	0.23938017
30	0x3e475db3	0.19469337
31	0xbdfb1e04	-0.122615844
32	0xbd9d02fb	-0.07666584
33	0x3e3b2a3f	0.18277834
34	0xbe26d9d6	-0.16294035
35	0xbe51ed78	-0.20500743
36	0x3c974851	0.0184671
37	0x3e0c515e	0.13702914
38	0xbe8601cf	-0.26173255
39	0x3de4cd52	0.11171974
40	0xbe783855	-0.24240239
41	0x3e42b2db	0.1901354
42	0x3df5c828	0.120010674
43	0xbdcae358	-0.09906644
44	0x3e811b89	0.2521632
45	0x3d59dc9f	0.053188916
46	0xbdd8d2fc	-0.10587117
47	0xbca012f1	-0.019540282
48	0xbc6da781	-0.014505268
49	0x3e01f839	0.12692346
50	0x3e78477f	0.24246024
51	0x3dc0cd66	0.09414177
52	0xbe1e4316	-0.15455279
53	0x3e8627cc	0.26202238
54	0x3e300bbf	0.17191981
55	0x3e3fa0b4	0.18713647
56	0x3bd5f821	0.0065298234
57	0x3dd405e2	0.103526846
58	0xbe01a802	-0.12661746
59	0xbd751e9d	-0.05984365
60	0xbe905c55	-0.28195444
61	0xbe5b00ce	-0.21387026
62	0xbe892f7c	-0.2679404
63	0x3e39e008	0.18151867
64	0xbe8115eb	-0.25212035
65	0xbe28a1be	-0.1646795
66	0xbd87ba99	-0.066273876
67	0xbe6acaf8	-0.22928989
68	0x3d58f7bd	0.052970637
69	0xbe03168f	-0.12801574
70	0xbe663a40	-0.22483158
71	0x3e61ad5f	0.22038792
72	0xbd8fcfa4	-0.07022026
73	0x3df4c531	0.11951674
74	0x3ddefaa8	0.10887653
75	0x3e847d73	0.2587696
76	0xbd998896	-0.07496755
77	0x3e0b187d	0.1358356
78	0x3e4b2df0	0.19841743
79	0xbe76902a	-0.24078432
80	0xbe3077a9	-0.17233147
81	0x3e6b637e	0.22987172
82	0xbda23f8a	-0.07922275
83	0x3d946e97	0.07247656
84	0xbe90eab8	-0.28304076
85	0xbb2cf6bb	-0.002639218
86	0x3e35068f	0.17678283
87	0xbe54104d	-0.20709343
88	0xbe229832	-0.1587837
89	0xbcf99599	-0.030466842
90	0x3e2c4cea	0.16826215
91	0x3e20b160	0.15692663
92	0x3e89f9f6	0.26948518
93	0xbc1c0ce6	-0.00952456
94	0x3c807259	0.015679525
95	0xbdddf43c	-0.108376
96	0xbe3f91eb	-0.18708007
97	0xbde5f9d0	-0.112292886
98	0xbdfe69f7	-0.12422555
99	0xbe043ffa	-0.1291503
100	0xbe6b973d	-0.23006912
101	0x3d880f8f	0.066435926
102	0x3db0fce3	0.08641984
103	0x399fbba6	0.00030466652
104	0xbe3c65ca	-0.18398204
105	0xbe34bd32	-0.17650297
106	0xbe8e5721	-0.2780085
107	0x3d48be17	0.04900941
108	0xbdceb2ae	-0.10092674
109	0xbc1dc80f	-0.009630217
110	0x3d79674e	0.060889535
111	0xbe80622f	-0.25074908
112	0xbe347d24	-0.17625862
113	0xbb0b1505	-0.0021222245
114	0x3e2b10c3	0.16705613
115	0x3da73721	0.08164812
116	0xbd7a5eea	-0.061125673
117	0x3e20f91a	0.15720025
118	0xbdb73c44	-0.08947042
119	0xbe2024b2	-0.15638998
120	0xbdbcd39b	-0.09220048
121	0xbe44b2b7	-0.192088
122	0xbe594fb8	-0.21221817
123	0xbd99770e	-0.07493411
124	0x3e323aa4	0.17405182
125	0x3e37cc8d	0.17949124
126	0x3e3fc9a6	0.18729267
127	0x3e5be906	0.2147561

layer2.weight f4 [128, 128]
0	0x3b6a206a	0.0035724887
1	0x3c3ffbd8	0.011717759
2	0xbcda402b	-0.026641926
3	0xbd2f0c7c	-0.042736515
4	0xbd45cbad	-0.048289943
5	0xbd18255b	-0.037145
6	0xbd569354	-0.052386597
7	0x3d2ac100	0.041687965
8	0x3c57834c	0.013153862
9	0x3d2cdee4	0.042204753
10	0xbc87d79c	-0.016582303
11	0x3d6a525a	0.057207443
12	0x3c0fc7f1	0.008775697
13	0x3d3f5bc2	0.046718366
14	0x3d0f6612	0.03500945
15	0xbb4e855f	-0.00315126
16	0x3d380459	0.04492602
17	0xbc25afd5	-0.010112722
18	0x3c980b3a	0.01856004
19	0x3d3b1751	0.045676533
20	0xbd31591a	-0.043297864
21	0x3d5ddf03	0.05416776
22	0x3d082bd9	0.03324494
23	0x3d422e69	0.04740754
24	0xbd7fe697	-0.062475767
25	0x3d08c594	0.03339155
26	0x3a13719b	0.00056245335
27	0x3d846c90	0.06466019
28	0x3d27bb2d	0.04094999
29	0x3aa13746	0.0012299798
30	0xbb94395d	-0.00452344
31	0x3c9974ab	0.01873239
32	0xbc4a8f01	-0.012363196
33	0xbd75e101	-0.060029034
34	0x3c8eb6e7	0.017421199
35	0x3d375aa7	0.044764187
36	0x3d23cf91	0.039992873
37	0xbca0479f	-0.019565402
38	0x3d5ab0ac	0.053391144
39	0x3d9b3b08	0.07579619
40	0x3d62e3ef	0.055393156
41	0xbd5e159d	-0.05421983
42	0x3d70cce6	0.058789156
43	0x3d53baca	0.051691808
44	0x3d244c62	0.040111907
45	0x3c94306c	0.018089496
46	0xbca0a3e5	-0.019609401
47	0xbc2b95ef	-0.010472759
48	0x3be42cad	0.0069633336
49	0xbcb60045	-0.022216925
50	0xbcd96282	-0.02653623
51	0x3c9b6c0f	0.018972425
52	0xbd503921	-0.050835732
53	0xbd0a7fbf	-0.033813234
54	0x3b7fc4bb	0.0039027173
55	0x3d42a779	0.047522996
56	0x3c999045	0.01874555
57	0xbd1ed9a4	-0.038781777
58	0xbd256d44	-0.040387407
59	0xbb85f8ab	-0.0040884814
60	0xbd8847fb	-0.06654354
61	0x3c7cba55	0.015425284
62	0xbdddb1cb	-0.10824927
63	0xbbe1b27a	-0.006887731
64	0xbcff2071	-0.031143399
65	0x3d136e5f	0.03599393
66	0xbd2e6d0b	-0.04258446
67	0x3d52c4ee	0.051457338
68	0xbd132b0d	-0.03592973
69	0x3d44d6c4	0.04805638
70	0x3cb9eee0	0.022696912
71	0xbd196f4a	-0.03745965
72	0x3cdffb19	0.027341412
73	0xbdb1f707	-0.08689695
74	0x3c4f9793	0.012670415
75	0x3cff5228	0.031167105
76	0xbd2db42c	-0.042408153
77	0x3c83a405	0.016069422
78	0xbcae5d0a	-0.021284599
79	0x3d2d2d78	0.04227969
80	0xbaa3f2f8	-0.0012508323
81	0xbd3870d2	-0.04502947
82	0x3ce2b46f	0.027673928
83	0xbd27abd4	-0.040935352
84	0x3beee5a9	0.007290561
85	0x3d81d71a	0.063398555
86	0x3c9390d9	0.018013405
87	0x3c9fc46a	0.019502837
88	0xbdb45b91	-0.088065274
89	0x3d8178b1	0.06321848
90	0xbcf77f3c	-0.030212037
91	0xbd0cc6f6	-0.03436943
92	0xbd62e537	-0.055394378
93	0x3ce27c82	0.02764726
94	0xbd6482f1	-0.055788938
95	0xbc1dbd0c	-0.009627592
96	0x3d4b7ff6	0.04968258
97	0xbd2a92a5	-0.041643757
98	0x3d763940	0.06011319
99	0x3badca17	0.005303632
100	0xbd39d23f	-0.045366522
101	0xbd2874ba	-0.041126944
102	0xbcd052ff	-0.0254302
103	0xbda3417c	-0.079714745
104	0xbd49f275	-0.04930349
105	0xbdb58ff6	-0.08865349
106	0xbccf4e62	-0.02530593
107	0x3d5b9345	0.053607244
108	0xbd79894b	-0.06092195
109	0xbb799c32	-0.0038087484
110	0x3d584515	0.052800257
111	0xbd168a9c	-0.036753282
112	0x3d4cb1ec	0.049974367
113	0x3d0c57f4	0.034263566
114	0xbcf85c4c	-0.030317448
115	0x3d31c218	0.043397993
116	0x3ce41a7b	0.027844658
117	0xbd252c58	-0.040325493
118	0x3c0e1ad8	0.008673392
119	0xbd2d8bb4	-0.04236956
120	0xbd01204c	-0.03152494
121	0xbc36343f	-0.011120855
122	0x3e24f7d5	0.16110165
123	0x3d7fa8bb	0.062416773
124	0xbc5d8133	-0.013519573
125	0x3c31b414	0.010846157
126	0xbd582448	-0.052768975
127	0xbcb6ef05	-0.02233077
128	0x3d021426	0.031757496
129	0xbc61614c	-0.013756108
130	0x3d6e170b	0.058127444
131	0xbc40b58e	-0.011762036
132	0x3d798ef3	0.060927343
133	0x3d84535e	0.064612135
134	0x3bfc58f5	0.007701034
135	0xbd6d57f8	-0.05794522
136	0xbb863e65	-0.0040967935
137	0x3b82ba80	0.0039895177
138	0xb969cbaf	-0.0002229649
139	0x3cf4ce9d	0.029883677
140	0xbbcbf7cb	-0.0062246076
141	0x3d77af61	0.06046999
142	0x3bcf49e4	0.006325947
143	0x3c228712	0.009919899
144	0xbd409832	-0.047020145
145	0x3d6e26f8	0.058142632
146	0x3d854ebe	0.065091595
147	0x3bfcf494	0.0077195857
148	0xbd3982a8	-0.04529062
149	0xbd436eb9	-0.047713015
150	0xbc405e26	-0.011741197
151	0x3cfdb816	0.030971568
152	0x3d66a78a	0.05631212
153	0xbcf47d87	-0.029845012
154	0xbd59af73	-0.053145837
155	0xbd289481	-0.04115725
156	0xbc16d486	-0.009205943
157	0xbc644dd4	-0.013934571
158	0xbd4c8bb0	-0.049937904
159	0x3d74b05a	0.059738494
160	0xbd5d362c	-0.05400674
161	0x3d02048f	0.03174263
162	0xbc15703f	-0.009121
163	0xbcbf6d08	-0.02336742
164	0xbcc2a885	-0.023761997
165	0x3d9ab075	0.07553188
166	0xbc22f71a	-0.009946609
167	0x3c26655f	0.010156005
168	0xbd275cfb	-0.040860157
169	0x3cc1e5dc	0.023669176
170	0x3d16548a	0.036701716
171	0xbc1680be	-0.009185968
172	0x3c5baddb	0.01340815
173	0xbd735a7a	-0.059412457
174	0x3d566ed2	0.05235178
175	0x3d7a4848	0.06110409
176	0xbd12505c	-0.035721168
177	0x3cb78e7a	0.022406805
178	0x3d2cc9f3	0.04218478
179	0x3c2a26ee	0.010385258
180	0xbce744bf	-0.028231023
181	0xbd3471c9	-0.044053826
182	0x3d06e395	0.032931883
183	0x3cc39905	0.023876676
184	0x3cf8a67a	0.03035282
185	0x3d18bc4b	0.037288945
186	0xbb412f8b	-0.00294778
187	0x3d46c947	0.048531797
188	0x3d34b2af	0.04411572
189	0x3d0e3937	0.034722533
190	0x3d7dc17a	0.06195209
191	0x3d115ef0	0.03549093
192	0x3c0f6044	0.008750979
193	0xbba6a71e	-0.00508584
194	0xbccda50b	-0.025103113
195	0x3d58703d	0.052841414
196	0x3c7f1b29	0.01557044
197	0xbd34bf8a	-0.04412798
198	0xbca45af5	-0.020062903
199	0x3cb8cafa	0.022557724
200	0x3d61e0f8	0.055146188
201	0xbcd631b3	-0.026146745
202	0x3cc7883e	0.024356958
203	0xbbdde11b	-0.0067712194
204	0xbd24cd61	-0.040234927
205	0x3c8775f2	0.016535733
206	0xbc2d58dd	-0.010580269
207	0xbd82562a	-0.06364091
208	0x3d2f1ac4	0.042750135
209	0xbd182a57	-0.037149753
210	0xbbbca373	-0.0057567894
211	0x3c639b0a	0.013891945
212	0x3d26d540	0.040730715
213	0xbd014f8e	-0.03157001
214	0x3ca87e23	0.02056796
215	0x3d48ecab	0.04905383
216	0xbd2ff4d0	-0.04295808
217	0xbd26edc4	-0.040754095
218	0x3d6e0c43	0.058117162
219	0xbc1d4aef	-0.009600385
220	0xbd2fa648	-0.042883188
221	0xbd85a2ff	-0.0652523
222	0xbbbcac38	-0.0057578348
223	0xbd3b107e	-0.045670025
224	0x3d3c3a8e	0.04595428
225	0xb9e300bd	-0.00043297364
226	0x3d0ebdd9	0.03484902
227	0xbd76a19f	-0.060212728
228	0xbc6f7f61	-0.014617772
229	0x3cc1fa09	0.023678796
230	0xbcbdc0f2	-0.023163293
231	0xbc0d61eb	-0.0086293025
232	0xbd4f2653	-0.05057366
233	0x3d2ecf59	0.04267821
234	0x3c686fb4	0.014186788
235	0xbb83f759	-0.004027289
236	0x3d177441	0.036976103
237	0xbcbcd795	-0.023052016
238	0x3d2e6eb2	0.042586036
239	0xbd3307e2	-0.04370869
240	0x3b5e48a7	0.0033917816
241	0x3c329995	0.010900875
242	0xbd64cfbc	-0.055862173
243	0x3cab8d9b	0.020941546
244	0xbce4a018	-0.02790837
245	0x3d3c4cfa	0.045971848
246	0xbb95849e	-0.0045629283
247	0x3d1777b8	0.036979407
248	0xbcf2286d	-0.029560292
249	0xbcd0975a	-0.025462795
250	0xbb7d7966	-0.0038677095
251	0x3cdcb2d2	0.026940737
252	0xbd56f27e	-0.052477352
253	0xbd90a187	-0.07062059
254	0x3d402fee	0.04692071
255	0xbc4c27e7	-0.012460685

layer2.bias f4 [128]
0	0xbcdd3d57	-0.027006788
1	0xbce8e21e	-0.028428134
2	0xbcad6867	-0.021167947
3	0x3bf23a2a	0.0073921876
4	0xbd1eab77	-0.03873774
5	0xbcabe0a2	-0.020981137
6	0x3d7e1440	0.06203103
7	0xbbdc7a77	-0.006728466
8	0x3d27b299	0.04094181
9	0x3c9210ba	0.017830241
10	0xbd5036e1	-0.050833587
11	0xbd1a76c7	-0.03771093
12	0x3d4625ec	0.04837601
13	0xbd1d0af4	-0.038340524
14	0x3c606140	0.013695061
15	0x3d452aea	0.04813663
16	0xbd4f3df6	-0.0505962
17	0xbd3e553a	-0.046467997
18	0xbc90601e	-0.017623957
19	0x3a8309e2	0.0009997452
20	0xba3abe3f	-0.0007123686
21	0xbd1caae5	-0.038248915
22	0x3bfaefea	0.0076579945
23	0xbd0afe86	-0.03393414
24	0xbc455551	-0.012044267
25	0x3d1a54e7	0.037678625
26	0xbd3f016d	-0.04663222
27	0xbd0a5684	-0.033773914
28	0x3d6f473d	0.058417547
29	0x38d0dda1	9.9594945e-05
30	0x3be209ae	0.0068981266
31	0x3cc7e1c9	0.024399655
32	0x3d017e70	0.03161472
33	0x3d3bdae4	0.045863047
34	0x3cd1e57b	0.02562212
35	0xbcf21c2d	-0.02955445
36	0x3d472082	0.048614986
37	0xbd8417da	-0.06449862
38	0x3cf85155	0.03031222
39	0xbc8350f8	-0.01602982
40	0xbcba07bc	-0.022708766
41	0x3d6f940d	0.0584908
42	0x3d088f6e	0.03333991
43	0x3ccfa999	0.025349425
44	0x3d51a897	0.05118617
45	0x3d484473	0.048893403
46	0xbc9b9067	-0.018989755
47	0xbcbd41a3	-0.023102587
48	0x3d61865b	0.055059772
49	0x3ce4e5eb	0.027941665
50	0x3d0d2963	0.034463298
51	0xbd297201	-0.04136849
52	0x3cdcafb6	0.026939254
53	0x3c4d27fa	0.012521738
54	0xbd1a6d53	-0.037701916
55	0xbcf53bb8	-0.029935703
56	0x3b84505f	0.0040379013
57	0xbc769a65	-0.015051459
58	0x39c2e1c3	0.0003717077
59	0x3c73a455	0.014870723
60	0x3ad86dbf	0.0016512199
61	0xbd197002	-0.037460335
62	0xbd16a593	-0.036778998
63	0x3c997235	0.018731216
64	0x3b2f2b29	0.0026728606
65	0x3c9c4512	0.019075904
66	0xbc16fc3c	-0.009215411
67	0xbd30e2e6	-0.043185137
68	0x3ce2436f	0.027620045
69	0x3d3aa22c	0.045564815
70	0xbd615cd4	-0.05502017
71	0x3baede64	0.0053365696
72	0xbcc99473	-0.024606919
73	0xbd27a28e	-0.04092651
74	0xbd7a0822	-0.061042912
75	0x3bfaa0fd	0.007648586
76	0x3c4746f6	0.0121629145
77	0x3cf929ec	0.030415498
78	0xbd5f158d	-0.05446391
79	0xbb85fc91	-0.004088946
80	0xbd884dcc	-0.066554636
81	0xbc3b8c48	-0.01144702
82	0x3d802e10	0.06258786
83	0xbd62dd2b	-0.055386703
84	0x3d7558bc	0.059899077
85	0xbcb0d65c	-0.02158659
86	0x3b60ff63	0.003433191
87	0x3ce1ece4	0.027578779
88	0x3d3f78f5	0.046746213
89	0x3b1c7888	0.0023875553
90	0x3d46fb20	0.048579335
91	0xbcbdfe36	-0.023192506
92	0x3c8a9b15	0.016919652
93	0x3d39d36d	0.045367647
94	0xbc89895b	-0.016789129
95	0x3cb079bb	0.02154242
96	0xbc67c4b5	-0.01414602
97	0x3d82ba60	0.063832045
98	0xbd4e95d8	-0.05043587
99	0xbca1e896	-0.019764226
100	0x3d638666	0.055548094
101	0x3d067ed9	0.032835815
102	0xbd2a0cbf	-0.041516062
103	0xbd39b9f9	-0.045343373
104	0x3d589fb5	0.052886683
105	0x3d22b08e	0.039719157
106	0x3bc7bb32	0.0060953135
107	0x3bd530b6	0.006506051
108	0x3c3427dc	0.010995831
109	0x3cd81e08	0.026381508
110	0x3d613491	0.05498177
111	0x3c8d7bf8	0.017271027
112	0x3cc7ff4c	0.024413727
113	0x3d2c2a36	0.042032443
114	0x3d4901e1	0.049074057
115	0xbd2ecd20	-0.04267609
116	0xbd883fa2	-0.06652762
117	0xbcc0ea3b	-0.02354919
118	0x3cd744ca	0.026277918
119	0xbd3d57fa	-0.04622648
120	0x3c987fbf	0.018615602
121	0x3cb88c79	0.02252792
122	0x3d380cba	0.044934012
123	0x3d5e6f92	0.05430562
124	0xbd4903d7	-0.049075928
125	0x3d5ca9a6	0.053872727
126	0xbc397eca	-0.011321733
127	0x3d2c0f52	0.042006798

layer3.weight f4 [7, 128]
0	0x3c481d25	0.01221398
1	0x3cdf7e14	0.027281798
2	0x3c9cbad2	0.019132052
3	0x3b3ab271	0.0028487707
4	0x3d41a33d	0.047274817
5	0x3bbb1b15	0.0057100155
6	0x3cf8c813	0.03036884
7	0xbcf11933	-0.029430961
8	0x3d0b6bf2	0.03403849
9	0x3d36a6b1	0.044592563
10	0xbcd04a50	-0.02542606
11	0xbc9de182	-0.01927257
12	0xbc4ea6a1	-0.01261297
13	0xbd27df81	-0.040984634
14	0x3d0d6de9	0.034528647
15	0x3d84ecca	0.064904764
16	0xbc36e490	-0.011162892
17	0x3c401226	0.011723077
18	0xbe0b5adb	-0.13608877
19	0xbd910a00	-0.070819855
20	0x3d409c85	0.04702427
21	0x3d450632	0.04810161
22	0x3d8041b7	0.06262534
23	0x3d294062	0.041321166
24	0xbd0a417c	-0.033753857
25	0x3d25266b	0.04031984
26	0xbc38561d	-0.011251
27	0xbd7cd873	-0.06172986
28	0xbd83dfb2	-0.06439151
29	0x3c90e438	0.017686948
30	0x3d40342c	0.046924755
31	0x3d34c079	0.04412887
32	0x3cd94bac	0.026525341
33	0xbd6ecabc	-0.05829881
34	0xbdd7ea64	-0.10542753
35	0xbd0a92af	-0.033831295
36	0xbd5951a0	-0.05305636
37	0x3cba5938	0.022747621
38	0x3d65fa84	0.056147113
39	0x3d2a0f3a	0.041518427
40	0xbd6660b9	-0.056244586
41	0x3d55b19f	0.052171346
42	0xbd611e24	-0.054960385
43	0x3d86f21f	0.0658915
44	0xba4219e9	-0.00074043736
45	0xbd08d3d3	-0.033405136
46	0xbd2e2067	-0.04251137
47	0x3d6db79a	0.058036424
48	0x3c864322	0.016389433
49	0x3da05f7e	0.07830714
50	0xbc12c89d	-0.008958963
51	0xbd47a21c	-0.048738584
52	0x3d2ced63	0.042218577
53	0x3d527bf2	0.051387735
54	0x3bb15a5b	0.0054123825
55	0x3c9a8ac6	0.018865
56	0xbcca3b3f	-0.024686454
57	0xbd97da24	-0.07414654
58	0x3d206682	0.03916026
59	0x3d361708	0.044455558
60	0xbb38e62b	-0.0028213363
61	0x3d19b3d8	0.037525028
62	0x3d82ef26	0.0639327
63	0x3d59fd3a	0.05322001
64	0x3d7fb889	0.062431846
65	0x3d232d57	0.03983816
66	0xbcfbf2ab	-0.030755362
67	0x3c8bac47	0.017049922
68	0xbd2e7c39	-0.042598937
69	0xbcb8f257	-0.022576494
70	0xbca7b703	-0.020473009
71	0xbcb41da5	-0.021986792
72	0x3bb21578	0.005434688
73	0x3d6bc825	0.05756392
74	0x3d3e0fb3	0.04640169
75	0x3c6837c7	0.014173455
76	0x3c3a3a49	0.011366435
77	0xbd7de710	-0.061987936
78	0x3d6cfa1f	0.05785572
79	0x3c85a952	0.01631609
80	0xbdcd4c44	-0.10024312
81	0x3d3d8fac	0.046279594
82	0x3d37d6ec	0.0448827
83	0xb8a290e3	-7.751749e-05
84	0x3d98d74b	0.07462939
85	0x3c9f007c	0.01940941
86	0x3d7f1f65	0.0622858
87	0xbcae7049	-0.021293776
88	0x3d8a57fc	0.06755063
89	0xbc9fd045	-0.01950849
90	0xbca182b1	-0.019715639
91	0xbc624784	-0.013810996
92	0xbd1328ab	-0.035927456
93	0xbcda4a82	-0.026646856
94	0xbcf27275	-0.029595593
95	0x3d6a067f	0.0571351
96	0x3d9b5069	0.075836964
97	0x3d77a313	0.060458254
98	0x3d4322a3	0.047640454
99	0xbc68d669	-0.014211276
100	0xbd2d9855	-0.042381603
101	0x3ce4a27c	0.02790951
102	0xbc040881	-0.008058668
103	0x3d20931f	0.039202806
104	0xbd11941e	-0.035541646
105	0x3c254e87	0.010089523
106	0x3d69b977	0.05706164
107	0xbcf1db8d	-0.029523635
108	0xbd7e444a	-0.062076844
109	0xbcfcae09	-0.030844705
110	0x3c8f05fb	0.017458906
111	0xbbc2c78a	-0.005944197
112	0x3d631507	0.055439975
113	0x3d80ce66	0.062893674
114	0xbd62bc1f	-0.055355188
115	0x3c04e5fa	0.008111471
116	0xbd3e229d	-0.04641973
117	0xbd4e5860	-0.05037725
118	0x3c782547	0.015145606
119	0xbd7521f1	-0.059846822
120	0xba867751	-0.0010258948
121	0x3d489521	0.048970345
122	0x3d836a3f	0.06416749
123	0xbc00a232	-0.00785117
124	0x3b339528	0.0027402136
125	0x3c6c6837	0.014429144
126	0x3cee588d	0.029094959
127	0x3d78e2b7	0.060763087
128	0x3cf6704d	0.030082846
129	0xbd091422	-0.033466466
130	0xbd6d37ac	-0.05791442
131	0x3c329bab	0.010901372
132	0xbc9a0eae	-0.018805828
133	0x3d2c603a	0.042083956
134	0xbca68466	-0.020326804
135	0xbd12df24	-0.035857335
136	0xbbd557e8	-0.0065107234
137	0x3d3e3fd0	0.046447575
138	0x3ccba35f	0.024858175
139	0x3cdb3290	0.026757509
140	0x3ca75280	0.020425081
141	0x3c5974b7	0.013272456
142	0xbd219bfd	-0.039455403
143	0xbac4a2fe	-0.0015002189
144	0x3b9e0081	0.0048218374
145	0xbc8fa42b	-0.017534336
146	0xbe2cdbe4	-0.16880757
147	0xbd3140c7	-0.043274667
148	0xbd6f3440	-0.05839944
149	0xbd56a9e2	-0.052408107
150	0x3ac8bd3a	0.0015315183
151	0xbc6026ef	-0.0136811575
152	0x3d7f7098	0.062363237
153	0xbd15efd4	-0.03660567
154	0x3d09b252	0.033617325
155	0xbd84d28b	-0.064854704
156	0x3bb74448	0.0055928566
157	0xbc109ebb	-0.008826907
158	0xbd3869e8	-0.045022875
159	0x3d3c0209	0.04590038
160	0xbd54fc1d	-0.051998246
161	0xba1497df	-0.00056683825
162	0xbddfff77	-0.10937398
163	0xbd2ee4ce	-0.042698674
164	0x3cadb8fd	0.021206373
165	0xbbe5ede7	-0.0070168856
166	0xbc9afa32	-0.01891813
167	0xbc812129	-0.015762882
168	0xbc344318	-0.0110023245
169	0x3c96e5ab	0.018420061
170	0xbd84f677	-0.06492322
171	0x3cebc638	0.028781042
172	0xbd8634ca	-0.065530375
173	0x3d65b2ea	0.05607883
174	0xbd69ecbd	-0.057110537
175	0x3d0d36fd	0.03447627
176	0xbd39519a	-0.045243837
177	0xbb977ecd	-0.00462327
178	0xbd85426b	-0.06506809
179	0x3d0dfdfb	0.034666043
180	0x3cb02a3e	0.021504518
181	0xbd3f01bf	-0.046632525
182	0x3d2f54bc	0.04280542
183	0x3d7fb0a4	0.062424317
184	0xbce14966	-0.02750082
185	0x3c9bad09	0.019003408
186	0x3d18c2f1	0.037295286
187	0x3cb29009	0.021797197
188	0x3bd0a14e	0.0063668853
189	0xbca31d72	-0.019911502
190	0x3d859c11	0.06523908
191	0x3d23262c	0.039831325
192	0x3d72b9ca	0.059259214
193	0xbc64c1fb	-0.013962264
194	0x3c83b95b	0.016079595
195	0x3ac61253	0.0015111662
196	0x3bb7234f	0.005588926
197	0xbd788021	-0.06066907
198	0xbd4de1ac	-0.050264046
199	0x3d686ccc	0.05674438
200	0x3c8b115c	0.016976051
201	0x3d0970fc	0.033555016
202	0x3cdcf94e	0.026974346
203	0x3d820298	0.06348151
204	0xbd56e955	-0.052468617
205	0xbd39679f	-0.045264836
206	0x3c9cfaf9	0.019162642
207	0x3a996b07	0.001170487
208	0xbd0f7653	-0.035024952
209	0x3ccaf5ed	0.02477547
210	0x3ca83ec2	0.020537738
211	0x3d53b16b	0.05168287
212	0x3d925208	0.071445525
213	0x3d71aa42	0.05900026
214	0x3c4d3cdf	0.01252672
215	0x3d12816a	0.03576795
216	0xbd14b0bc	-0.03630136
217	0xbd80cda1	-0.062892206
218	0x3c48db5c	0.012259331
219	0x3caa2bd1	0.020772846
220	0xbc84a149	-0.016190188
221	0x3ca98864	0.020694919
222	0xbd0e11ef	-0.03468507
223	0x3b3682a5	0.0027848866
224	0x3d8fb10c	0.07016191
225	0x3d219ba1	0.03945506
226	0xbd14371e	-0.036185376
227	0xbd024136	-0.03180047
228	0xbcfbd751	-0.03074232
229	0xbcdc94c2	-0.026926402
230	0x3d79d53b	0.060994368
231	0xbcc64eac	-0.024207436
232	0x3cc7511e	0.024330672
233	0x3c9c860e	0.019106891
234	0xbb9175ae	-0.0044390773
235	0x3cdf09c7	0.027226342
236	0x3c1881b6	0.009308269
237	0xba70aa81	-0.00091806805
238	0xbb1aa083	-0.0023594208
239	0x3d47cd37	0.048779693
240	0xbd1f3f28	-0.03887859
241	0xbbe17396	-0.006880234
242	0xbd5996ee	-0.053122453
243	0xbd8407fb	-0.06446835
244	0x3ace4677	0.0015737553
245	0xbcd1efba	-0.025627006
246	0x3d02bf21	0.031920556
247	0x3c3d6f0e	0.011562122
248	0xbc9696fc	-0.018382542
249	0x3c82b63b	0.015956035
250	0xbce82853	-0.02833954
251	0x3d643d3e	0.055722468
252	0x3d61708a	0.055038966
253	0xbd5a887c	-0.053352818
254	0xbcad8042	-0.021179322
255	0xbcfefb28	-0.03112562

layer3.bias f4 [7]
0	0x3d737a3d	0.059442747
1	0x3c644356	0.01393207
2	0x3d1dd3b3	0.03853197
3	0x3d9ebb09	0.07750518
4	0xbd5b7c62	-0.053585418
5	0xbd69bde7	-0.05706587
6	0xbd5a7dd6	-0.053342663
