DQN/Models/_24_19_41_policy_net.pth (torch, 281354 bytes, 6 tensors)

layer1.weight f4 [256, 7]
0	0x3df46c6d	0.11934743
1	0xbe4fa048	-0.20275986
2	0xbe14fdda	-0.14549962
3	0xbdfc5955	-0.12321726
4	0x3e64d3e4	0.22346455
5	0xbe4efcd1	-0.2021363
6	0x3e362017	0.17785679
7	0xbdb4ba65	-0.088246144
8	0xbe7d2b24	-0.24723488
9	0xbdc69988	-0.096972525
10	0x3e81c6c8	0.2534697
11	0x3da288aa	0.07936223
12	0xbc85622b	-0.016282162
13	0xbd4e2328	-0.050326496
14	0xbe0b481d	-0.13601728
15	0x3e80b902	0.2514115
16	0xbce2d104	-0.027687557
17	0xbe84266c	-0.25810564
18	0xbdd27839	-0.10276837
19	0xbe3cf6c6	-0.18453512
20	0xbe79729e	-0.24360129
21	0x3e8151b4	0.25257647
22	0xbd971578	-0.07377142
23	0xbdc182f0	-0.094488025
24	0x3e51931b	0.20466273
25	0xbcacd0a1	-0.021095576
26	0x3bd49dc0	0.006488532
27	0x3f113c37	0.56732506
28	0x3d16d22f	0.03682154
29	0x3d2530fa	0.04032991
30	0xbc20bf77	-0.009811274
31	0x3df48bb8	0.11940712
32	0x3c3d16b3	0.011541056
33	0x3d881be5	0.066459455
34	0x3ea8df56	0.32982892
35	0x3e809d68	0.2512009
36	0x3e4dbf42	0.2009249
37	0x3d732be6	0.059368037
38	0xbe8e18b3	-0.2775322
39	0x3d8262fa	0.063665345
40	0xbe0e2e43	-0.13884835
41	0x3da016e9	0.0781687
42	0x3d916691	0.07099641
43	0x3e036fc9	0.12835611
44	0xbd9c0886	-0.07618813
45	0xbddb4602	-0.10706712
46	0xbd8cf40c	-0.06882486
47	0xbba33361	-0.00498049
48	0xbe16fae3	-0.14744143
49	0xbe036889	-0.12832846
50	0xbd4df9a6	-0.05028691
51	0xbbd7519c	-0.006571008
52	0x3e03b5b4	0.12862283
53	0xbda84df8	-0.08217996
54	0xbdaa88a2	-0.08326842
55	0x3e11d261	0.1424041
56	0xbe066370	-0.1312387
57	0xbd6c1bff	-0.057643887
58	0x3d9d40bf	0.07678365
59	0x3d4b5bdc	0.04964815
60	0xbe54b56a	-0.20772329
61	0x3e72be6d	0.23705454
62	0x3e1801fc	0.14844507
63	0xbd34119c	-0.043962106
64	0x3d0eb146	0.03483703
65	0x3e5b9f13	0.21447401
66	0xbe833521	-0.25626472
67	0xbde2c175	-0.11072055
68	0xbe8752ba	-0.26430303
69	0x3e0fbed0	0.14037633
70	0xbdb0c70f	-0.086317174
71	0x3de62fa2	0.11239554
72	0xbced004a	-0.028930802
73	0x3b8cc3de	0.00429581
74	0xbe15035f	-0.14552067
75	0xbe605e5d	-0.21910997
76	0x3e01f794	0.126921
77	0xbca8536e	-0.020547595
78	0xbdb13169	-0.08652002
79	0x3e44fb35	0.19236453
80	0xbe7f361c	-0.24922985
81	0x3d11840f	0.03552633
82	0x3e83a33c	0.25710475
83	0x3ec43e76	0.38328904
84	0x3e7e1acf	0.24814914
85	0xbd7683a5	-0.06018414
86	0xbe86fe9b	-0.26366124
87	0x3e2f0e55	0.17095311
88	0x3d269dd2	0.040677853
89	0x3d043aeb	0.03228275
90	0xbc0d469f	-0.008622794
91	0xbe86f2f8	-0.26357245
92	0x3e85a2bf	0.26100728
93	0xbd7c9239	-0.061662886
94	0xbcc599d2	-0.024121199
95	0x3bbaf409	0.005705361
96	0x3d1cc1fa	0.038270928
97	0x3d809c81	0.06279851
98	0x3e87ad7b	0.26499543
99	0xbe102404	-0.14076239
100	0x3e403e5d	0.1877379
101	0xbc6b93e5	-0.0143785225
102	0xbd2823eb	-0.04104988
103	0xbdd60486	-0.104500815
104	0x3ee2bebf	0.44286153
105	0x3e160573	0.14650516
106	0xbe06361a	-0.13106576
107	0xbe218a6b	-0.15775459
108	0x3d92e61a	0.07172795
109	0x3d6e416d	0.058167864
110	0xbd828e6b	-0.0637482
111	0x3e002884	0.12515455
112	0xbda7a4ef	-0.081857555
113	0xbe5d459b	-0.21608584
114	0xbe54d0a8	-0.20782721
115	0xbdaa4c4d	-0.083153345
116	0xbd02b365	-0.031909365
117	0xbda60b16	-0.08107583
118	0x3c2eda95	0.010672231
119	0x3d7b8b33	0.061412048
120	0x3e2c973d	0.16854568
121	0x3e1ccecd	0.15313263
122	0xbda54850	-0.08070433
123	0x3e50bd92	0.20384815
124	0xbe1d3680	-0.15352821
125	0x3ed236a1	0.41057304
126	0xbd39f070	-0.045395315
127	0xbd2ea871	-0.042641107
128	0x3e1a6611	0.15077998
129	0xbe4a83bf	-0.1977682
130	0xbd8b6b27	-0.06807547
131	0xbce632d5	-0.02810041
132	0x3e756e4c	0.23967856
133	0xbd7e0e5e	-0.06202542
134	0x3d92f0f2	0.07174863
135	0x3e364f68	0.17803729
136	0x3db66ec4	0.089078456
137	0xbe5d8b0b	-0.21635072
138	0xbdd9ac3b	-0.106285535
139	0x3e383a95	0.17991097
140	0xbe440c12	-0.1914523
141	0x3db3ecbc	0.08785388
142	0x3e42c516	0.19020495
143	0xbd4fe037	-0.050750937
144	0xbdcef0ed	-0.10104547
145	0x3ca638fa	0.02029084
146	0x3f08bedb	0.5341622
147	0xbd6d786a	-0.057976164
148	0xbd6cb4f8	-0.057789773
149	0xbe86e4cc	-0.26346433
150	0x3d94f905	0.07274059
151	0x3c39f67c	0.01135027
152	0x3cd3e04e	0.025863793
153	0x3e1b4130	0.15161586
154	0xbe219ff6	-0.15783677
155	0x3e0619b1	0.13095738
156	0x3e56e7ad	0.20986815
157	0x3e2a5d49	0.16637148
158	0x3e4942d5	0.196544
159	0x3e029c6b	0.12754981
160	0xbe3f45f7	-0.18679033
161	0x3e1b81f2	0.15186289
162	0x3db99759	0.090620704
163	0x3e46e362	0.19422677
164	0x3e7cf697	0.24703442
165	0x3d9fb6be	0.07798527
166	0x3dcea5b2	0.100901976
167	0x3ddf03b9	0.10889382
168	0xbe0845e5	-0.13307913
169	0x3de26fb1	0.1105646
170	0x3e196dbb	0.14983265
171	0x3cb63df3	0.022246337
172	0xbe37fda1	-0.17967845
173	0xbd8cb3d3	-0.06870236
174	0x3dad8284	0.084721595
175	0x3d8f3fc0	0.06994581
176	0xbe80b0a4	-0.25134766
177	0x3d729b1d	0.05922996
178	0xbe2f9cf3	-0.17149715
179	0xbdaa2ca1	-0.083092935
180	0x3e7bb293	0.2457984
181	0xbc4a662f	-0.012353464
182	0xbdbac83b	-0.09120222
183	0x3dc93630	0.098247886
184	0xbdf5c837	-0.120010786
185	0xbe030295	-0.12793954
186	0x3cebc205	0.02877904
187	0x3e45b6c3	0.19308
188	0xbe7d4e2c	-0.24736851
189	0xbe07ef29	-0.13274826
190	0xbdf4f168	-0.11960107
191	0x3e64b888	0.22336018
192	0xbe09ccc3	-0.13457017
193	0x3e1745c1	0.14772703
194	0xbe59f482	-0.21284679
195	0xbe6098cf	-0.21933292
196	0x3dfd5d0b	0.12371262
197	0x3da19dd4	0.078914315
198	0xbe7936f8	-0.24337375
199	0x3e6fb889	0.23410238
200	0x3ca8bd21	0.020597996
201	0x3e270ac1	0.16312696
202	0x3e13cc4b	0.144334
203	0x3daeb6a8	0.08530933
204	0xbe2b2b2f	-0.16715692
205	0xbde0c330	-0.10974729
206	0x3bf504b8	0.007477369
207	0x3e62d548	0.22151673
208	0x3ddb42e4	0.10706118
209	0xbdd04e6b	-0.10171207
210	0xbd9208be	-0.07130574
211	0xbe640fcf	-0.22271655
212	0x3b113d6f	0.0022161861
213	0x3e05ee77	0.13079248
214	0x3e1fbdeb	0.15599792
215	0xbddee5dc	-0.10883686
216	0x3e52104e	0.20514032
217	0x3cf9884c	0.0304605
218	0xbe5f4866	-0.21804962
219	0xbe307d24	-0.17235237
220	0x3d4a644f	0.049412068
221	0x3e580302	0.21094897
222	0x3e0ed33d	0.13947769
223	0x3f218d47	0.631062
224	0x3e42fe6b	0.19042365
225	0xbe68363b	-0.22676937
226	0xbe85ccce	-0.26132816
227	0xbe3c4c0d	-0.18388386
228	0x3e4cf8ca	0.2001678
229	0xbe16858b	-0.1469938
230	0x3dbad737	0.0912308
231	0xbe323b4e	-0.17405435
232	0x3e695618	0.22786748
233	0xbe879522	-0.26480967
234	0x3d39a84f	0.045326527
235	0x3e514266	0.20435485
236	0xbe0c3d0e	-0.13695166
237	0xbd0ddc4f	-0.03463393
238	0x3e279d55	0.16368611
239	0xbd241b00	-0.04006481
240	0x3d551766	0.052024268
241	0x3e74c1e6	0.23902091
242	0x3d3d1cdc	0.0461701
243	0x3df6916c	0.12039456
244	0xbd15888a	-0.036507167
245	0x3dfbdb3b	0.12297674
246	0x3e646ca3	0.22307067
247	0xbd6e19bf	-0.058130022
248	0xbe070270	-0.13184524
249	0xbdb3e7e8	-0.08784467
250	0x3e288740	0.16457844
251	0xbe2a7921	-0.1664777
252	0x3d52ed10	0.05149561
253	0xbe4fe113	-0.20300703
254	0x3e82f61d	0.25578395
255	0x3e64ca9d	0.22342916

layer1.bias f4 [256]
0	0xbb8e7e59	-0.004348558
1	0xbe4e7f25	-0.2016569
2	0x3e47bf30	0.19506526
3	0xbe68d4fe	-0.227375
4	0xbe569f41	-0.20959188
5	0x3caa2edd	0.0207743
6	0xbd35e79f	-0.044410344
7	0x3de024ab	0.10944494
8	0x3e670917	0.22562061
9	0x3dba06d1	0.090833314
10	0x3e78fdcd	0.24315567
11	0x3c400be2	0.011721583
12	0x3da5a06c	0.08087239
13	0xbdc13207	-0.0943337
14	0xbdb349f2	-0.08754338
15	0xbe535fd1	-0.2064202
16	0x3e120562	0.14259866
17	0x3d3ca76a	0.046058096
18	0xbdfeb1a4	-0.12436226
19	0xbd92ce8f	-0.07168304
20	0x3d9efce3	0.07763078
21	0xbd90a423	-0.070625566
22	0xbce6329a	-0.0281003
23	0xbdd3350c	-0.10312852
24	0x3e853fd9	0.26025274
25	0xbe79cd3b	-0.24394695
26	0xbd01d95c	-0.03170143
27	0xbe87d9bd	-0.2653331
28	0x3d1289e3	0.03577603
29	0x3e0aa67d	0.13540073
30	0x3e79c791	0.24392535
31	0xbe2d6abb	-0.16935246
32	0xbdcdda33	-0.10051384
33	0x3dc9e67c	0.098584145
34	0x3d48ff6d	0.049071718
35	0x3e7e14e1	0.24812652
36	0x3e2a699e	0.16641852
37	0xbe7c701d	-0.24652143
38	0xbe89ca20	-0.26912022
39	0x3d2e6db1	0.04258508
40	0x3e66e25c	0.22547287
41	0xbe6007b6	-0.21877941
42	0xbe893bb6	-0.26803368
43	0xbd185fc9	-0.037200723
44	0xbe7dd3b0	-0.24787784
45	0xbdebcb8f	-0.11513435
46	0x3e007984	0.12546355
47	0xbcfb2405	-0.030656824
48	0xbe47e9dc	-0.19522804
49	0xbe54a678	-0.20766628
50	0xbe2de306	-0.16981134
51	0xbd96f5bc	-0.07371089
52	0xbe313d39	-0.17308511
53	0x3d26aa5f	0.040689822
54	0x3c32652b	0.010888378
55	0xbe7668f1	-0.2406347
56	0x3e23456f	0.15944456
57	0x3e2aff3c	0.16698927
58	0x3e202f78	0.15643108
59	0x3dc24751	0.09486259
60	0xbda301b7	-0.079593115
61	0x3d08a339	0.033358786
62	0xbe3d28fb	-0.18472664
63	0x3db09930	0.08622968
64	0xbe36c678	-0.17849147
65	0xbdd181fa	-0.10229869
66	0x3e40c3c1	0.18824674
67	0x3d3f88ed	0.046761442
68	0x3e03b7c0	0.12863064
69	0x3e2931b4	0.16522866
70	0xbd2144bc	-0.03937219
71	0x3e32b42a	0.1745154
72	0xbe16f631	-0.14742352
73	0xbcbc8b9b	-0.023015788
74	0xbe492d88	-0.19646275
75	0xbe881dfc	-0.26585376
76	0x3e391368	0.18073809
77	0xbe4ff678	-0.20308864
78	0xbca49897	-0.020092292
79	0xbdf01e1c	-0.11724493
80	0xbe841f2c	-0.25805032
81	0x3e5007cb	0.20315473
82	0x3df6f27d	0.1205797
83	0x3e775e1a	0.2415699
84	0xbc666806	-0.014062887
85	0x3d13ecd1	0.036114518
86	0xbe0b8290	-0.13624024
87	0xbd23c8d0	-0.03998643
88	0x3e043595	0.12911065
89	0x3e63c3ff	0.22242735
90	0x3d900bec	0.07033524
91	0xba05b50d	-0.0005100526
92	0xbe8c3e69	-0.27391365
93	0xba6ec5e7	-0.0009108469
94	0xbde9fa7a	-0.11424728
95	0x3e304293	0.17212896
96	0x3e441ec2	0.19152358
97	0x3de25f09	0.11053283
98	0xbd05c695	-0.032660086
99	0x3dd6e154	0.10492197
100	0xbcb1da2d	-0.02171048
101	0xbe4391c4	-0.19098574
102	0xbe87917f	-0.26478192
103	0xbe5df4df	-0.21675442
104	0x3e22110b	0.15826814
105	0x3dc87051	0.09787048
106	0x3da24d42	0.07924892
107	0xbd6bacbd	-0.057537783
108	0xbc8846c4	-0.016635306
109	0x3d5a1023	0.053238045
110	0xbe41d099	-0.1892723
111	0xbdeafa94	-0.11473575
112	0x3d6583c5	0.05603387
113	0xbcfe92d9	-0.031075882
114	0x3c864440	0.016389966
115	0xbdb9b865	-0.090683736
116	0xbd222193	-0.0395828
117	0xbde87120	-0.11349702
118	0xbd86d240	-0.06583071
119	0x3d0287c7	0.03186777
120	0xbd306c9e	-0.043072335
121	0xbe120645	-0.14260204
122	0x3e634131	0.22192837
123	0x3e188a37	0.14896475
124	0x3db2ec3d	0.08736465
125	0xbdb4872b	-0.08814844
126	0x3dcd49ec	0.10023865
127	0xbd573b7b	-0.05254696
128	0x3cd606b0	0.026126236
129	0xbe751405	-0.23933418
130	0x3d314bdc	0.043285236
131	0xbd19ef78	-0.03758189
132	0x3e408533	0.18800811
133	0xbdee367c	-0.11631486
134	0x3e737b45	0.23777492
135	0x3e37232a	0.17884508
136	0xbdd17c2d	-0.10228763
137	0x3de69fa6	0.11260919
138	0xbe3bcd94	-0.1834014
139	0xbdfba2cc	-0.122869104
140	0xbe4a3c91	-0.19749667
141	0xbe5eab5b	-0.21745054
142	0xbdaafdde	-0.083492026
143	0x3e3821e8	0.17981684
144	0x3e24a728	0.1607939
145	0xbcdf1cfe	-0.027235504
146	0x3d32fcb3	0.043698024
147	0xbde100e8	-0.10986501
148	0x3de57ed9	0.11205835
149	0xbe2ccc7f	-0.16874884
150	0x3e6248d0	0.22098088
151	0xbd8e05ab	-0.06934675
152	0x3e155d91	0.14586474
153	0x3d03c8f3	0.032174062
154	0xbda6022b	-0.08105882
155	0x3e585e40	0.21129704
156	0xbe4518aa	-0.1924769
157	0x3df587b5	0.11988775
158	0xbe39e6fb	-0.18154518
159	0x3dfc5f36	0.123228475
160	0x3e596530	0.21230006
161	0xbe499795	-0.1968673
162	0x3e475d1c	0.19469112
163	0xbd54640d	-0.05185323
164	0x3e855b51	0.2604623
165	0x3d97b218	0.074070156
166	0xbe6b6428	-0.22987425
167	0x3e0a63e7	0.13514672
168	0xbe7455d7	-0.2386087
169	0xbe5edecf	-0.21764682
170	0xbdcac1c4	-0.09900239
171	0xbdfed8c4	-0.124436885
172	0x3e505c28	0.20347655
173	0x3e4c898a	0.19974342
174	0x3e6e9223	0.23297934
175	0x3e86bd08	0.26316094
176	0xbc875e53	-0.01652447
177	0x3e252755	0.16128285
178	0x3c9fe5dd	0.019518787
179	0x3e04d40d	0.12971516
180	0x3cd8965e	0.026438888
181	0xbe83fa6e	-0.25777
182	0x3e1ead1f	0.15495728
183	0x3e6f54be	0.2337217
184	0xbd21d722	-0.039511807
185	0xbe367d6d	-0.17821284
186	0xbd14e0fb	-0.03634737
187	0xbda5e9a5	-0.08101205
188	0x3e1fdc83	0.15611462
189	0xbe8c1f11	-0.27367452
190	0xbda7a773	-0.08186235
191	0xbd9aa071	-0.07550133
192	0xbdb2178e	-0.08695899
193	0xbe806a6f	-0.25081202
194	0x3e192dbd	0.14958854
195	0xbc79330f	-0.015209927
196	0x3de9bd6a	0.11413081
197	0x3e6b71cc	0.22992629
198	0x3e14a509	0.14516081
199	0x3d987431	0.07444037
200	0x3e0e7e0a	0.13915268
201	0xbe640720	-0.22268343
202	0x3e19396c	0.14963311
203	0xbe47aec8	-0.19500268
204	0xbe70ed6f	-0.23528074
205	0xbe08225f	-0.13294362
206	0xbe7b3b25	-0.2453428
207	0x3d064757	0.03278288
208	0xbda69176	-0.08133213
209	0xbd8bb3f2	-0.06821431
210	0x3ce672cf	0.028130917
211	0x3e599c88	0.21251118
212	0xbe81e243	-0.25367936
213	0xbde9ee4f	-0.11422407
214	0x3dc01139	0.09378285
215	0x3e6aae2d	0.22918005
216	0x3e891cea	0.26779872
217	0x3dea8d2a	0.11452706
218	0x3e2b2c55	0.1671613
219	0x3e1503e3	0.14552264
220	0xbe185e6d	-0.1487977
221	0xbba57cd9	-0.0050502834
222	0x3d65bdec	0.056089327
223	0xbe3b9255	-0.1831754
224	0xbdff1197	-0.12454527
225	0xbdff2151	-0.124575265
226	0xbe81f238	-0.2538011
227	0x3dad6b21	0.08467699
228	0xbe17eaaf	-0.14835618
229	0xbe377401	-0.17915346
230	0xbd42e7d6	-0.047584377
231	0xbe10924b	-0.14118306
232	0xbbb33cc7	-0.0054698917
233	0xbe838eb6	-0.25694817
234	0xbe7137b5	-0.23556407
235	0xbe7e3e9c	-0.24828571
236	0x3e168930	0.1470077
237	0x3e806721	0.2507868
238	0x3dffcc91	0.1249019
239	0x3e199ec5	0.15001972
240	0x3c7d25d7	0.015450916
241	0xbe63b141	-0.22235586
242	0x3e46a257	0.19397865
243	0xbd35b488	-0.04436162
244	0x3e69750b	0.22798555
245	0x3d9ab72a	0.07554467
246	0xbde8ef47	-0.113737635
247	0xbdf3bb0e	-0.11900912
248	0xbc467968	-0.012113906
249	0x3cba0397	0.02270679
250	0x3bf725cd	0.007542348
251	0xbe031545	-0.12801082
252	0x3e71cdb1	0.23613621
253	0xbdc31f16	-0.095274135
254	0x3e32a190	0.17444444
255	0xbd5fef91	-0.054671828

layer2.weight f4 [256, 256]
0	0xbbb9085f	-0.00564675
1	0x3c2d5818	0.010580085
2	0xbcfed099	-0.031105326
3	0xbcb899a2	-0.022534195
4	0xbbc3b03f	-0.005971938
5	0xbc7c0a5d	-0.01538333
6	0x3c0362a9	0.008019128
7	0x3d0d32b0	0.034472167
8	0xbd1b72b9	-0.037951205
9	0x3b80ad97	0.0039269435
10	0xbc4502dd	-0.012024608
11	0xbd2e3c43	-0.04253794
12	0xbbc9d2a5	-0.006159144
13	0xbcd7ecf2	-0.026358102
14	0xbcc3b8ee	-0.023891892
15	0xbcfe8a02	-0.031071667
16	0x3cb5e782	0.022205118
17	0x3d1b4f28	0.037917286
18	0x3d040b50	0.03223735
19	0x3cea9bd7	0.028638763
20	0xbd01767e	-0.031607144
21	0x3c08f44a	0.008359024
22	0xbca496a8	-0.02009137
23	0xbc8a7935	-0.0169035
24	0xbcece821	-0.028919281
25	0xbb8f4041	-0.0043716733
26	0x3d0cad25	0.03434481
27	0x3d165b1b	0.03670798
28	0x3d1f5b6b	0.038905542
29	0x3c38c946	0.011278456
30	0x3c92bf4f	0.017913489
31	0xbcbd2969	-0.023091035
32	0xbcdec878	-0.0271952
33	0xbb1820c1	-0.0023212882
34	0xbcf79f0a	-0.030227203
35	0x3bdeef1a	0.0068034055
36	0xbcec3387	-0.028833164
37	0x3c598389	0.013275989
38	0x3d7cb261	0.061693553
39	0x3c113b9f	0.008864312
40	0x3cdff7af	0.027339784
41	0xbccf5ac6	-0.025311839
42	0xbc69bd45	-0.014266317
43	0xbcd67c7a	-0.026182402
44	0x3bef7a64	0.0073082913
45	0x3c0bc5a6	0.00853101
46	0x3d09dc66	0.033657454
47	0x3d29bdb5	0.041440684
48	0xbcdb186d	-0.026745046
49	0x3bde2fca	0.0067805992
50	0x3cf89d79	0.030348526
51	0xbaf2bf75	-0.0018520193
52	0x3cf967e5	0.030445049
53	0x3aa8ac50	0.0012868736
54	0xbb027e07	-0.0019911544
55	0x3c882a54	0.016621746
56	0xbd2f0a05	-0.042734165
57	0xbc23f56f	-0.010007246
58	0x3c9b1662	0.018931571
59	0x3cce1a4d	0.025159026
60	0xbcbce1db	-0.023056915
61	0x3be43f32	0.0069655413
62	0x3d4cde7a	0.050016858
63	0xbb3516b5	-0.0027631943
64	0xbc08f68a	-0.008359561
65	0xbd259bee	-0.04043191
66	0xba8fe293	-0.0010977559
67	0x3c3672b5	0.011135747
68	0x3c909c37	0.017652614
69	0xbcc67255	-0.02422444
70	0x3cfa139e	0.030526932
71	0x3ca923be	0.020646926
72	0xbd14e824	-0.0363542
73	0x3c8705be	0.01648223
74	0xbc403a0c	-0.011732589
75	0x3ce43dd5	0.027861515
76	0xbc68175c	-0.014165726
77	0x3ca25913	0.019817865
78	0x3ccdfed9	0.025145935
79	0x3c3fc10a	0.011703739
80	0xbcdf44bd	-0.027254457
81	0xbc5bf52a	-0.013425151
82	0xbd169db0	-0.036771476
83	0x3b38b159	0.002818188
84	0xbce212fe	-0.027596947
85	0xbd0204cc	-0.031742856
86	0xbd11c92b	-0.03559224
87	0x3d105d7e	0.03524541
88	0x3bfa0307	0.0076297554
89	0x3c3dbd9d	0.011580852
90	0xbcf5a733	-0.029986953
91	0x3cd368d9	0.025806831
92	0xbca4ac09	-0.020101564
93	0xbd0e5e5d	-0.03475796
94	0xbd0dc627	-0.0346128
95	0xbca7ba55	-0.020474592
96	0x3c96d893	0.018413818
97	0xbca7cfd3	-0.02048484
98	0x3ad556ab	0.001627644
99	0x3c7c7bff	0.015410422
100	0xbd03c760	-0.03217256
101	0xbd21718c	-0.039414927
102	0xbc6dd879	-0.014516943
103	0xbcfd54c7	-0.030924214
104	0xbda8cf20	-0.08242631
105	0x3d250cbc	0.040295348
106	0xbd2a7baf	-0.04162186
107	0x3b3cc1d1	0.0028802047
108	0xbaade6ff	-0.0013267695
109	0xbddd61f2	-0.10809697
110	0xbd05044a	-0.032474793
111	0xbd268e5d	-0.040663112
112	0x3c56dc30	0.01311402
113	0x3d158ea6	0.036512993
114	0xbd11edba	-0.035627104
115	0xbc29fb26	-0.01037482
116	0xbd127c99	-0.035763357
117	0x3b7b918a	0.0038386309
118	0xbcbc4fbe	-0.022987243
119	0xbcbb66db	-0.022876194
120	0xbc041a75	-0.0080629485
121	0x3ce5b1f0	0.028038949
122	0xbc73f97d	-0.014891026
123	0xbc41c6e1	-0.011827202
124	0xbcc9ed1e	-0.0246492
125	0xbd0c5b5d	-0.03426682
126	0x3cf72518	0.030169055
127	0xbd20c658	-0.039251655
128	0x3c32773f	0.010892688
129	0xbc3f6661	-0.011682124
130	0xbd0e769c	-0.034781083
131	0x3ca99d98	0.02070503
132	0x3d16f962	0.036858924
133	0xbd4d0495	-0.050053198
134	0xbd0be2d4	-0.034151867
135	0xbcb69dff	-0.022292135
136	0x3cb97127	0.022636963
137	0x3d46c1fa	0.048524834
138	0xbd163889	-0.03667501
139	0xbd0aceab	-0.0338885
140	0x3cc6538b	0.024209758
141	0x3c91457f	0.017733334
142	0xbcf06497	-0.02934484
143	0x3d2e3df4	0.04253955
144	0x3c671b01	0.014105559
145	0xbaccb737	-0.0015618567
146	0x3d134c61	0.035961512
147	0xbc9fef1b	-0.019523194
148	0x3bced8b0	0.0063124523
149	0x3cda5a2b	0.026654324
150	0xbca66137	-0.020310028
151	0xbc4d1cb2	-0.0125190485
152	0xbd3ae797	-0.045631018
153	0xbc948bcf	-0.018133072
154	0xbd23bd2c	-0.03997533
155	0x3c74fe78	0.014953248
156	0xbd013dff	-0.031553265
157	0xbd145225	-0.03621115
158	0xbc8ddf11	-0.01731828
159	0x3cf1a638	0.029498205
160	0x3d2d56c0	0.04231906
161	0x3cb5a9b3	0.022175645
162	0x3ce92eb9	0.028464662
163	0x3cad3495	0.021143237
164	0xbbe5e7cc	-0.0070161577
165	0x3d2eb4f4	0.04265304
166	0xbd31bbdb	-0.043392044
167	0x3b9ef028	0.004850406
168	0xbcbb01e8	-0.022828057
169	0xbcc6c896	-0.024265569
170	0x3a6b8bff	0.00089853996
171	0xbc62970c	-0.013829958
172	0x3cbee13b	0.023300758
173	0xbc8685c9	-0.016421216
174	0x3cf659f4	0.03007219
175	0xbd2bc77c	-0.04193829
176	0xbcf04ad1	-0.02933255
177	0x3cd6f7a6	0.026241135
178	0x3cf681e4	0.030091234
179	0xbcb18678	-0.021670565
180	0xbcdab9d8	-0.026699945
181	0x3c5ca9bc	0.013468202
182	0xbc29047a	-0.010316009
183	0xbc331be9	-0.010931947
184	0xbcdc0ba3	-0.026861018
185	0x3d0e3ea7	0.03472772
186	0x3d1f24b9	0.03885338
187	0xbb2e7c7a	-0.0026624487
188	0xbc61e583	-0.01378763
189	0x3d1c6e80	0.03819132
190	0xbc93b57a	-0.01803087
191	0x3cf1d033	0.029518222
192	0xbbb88779	-0.005631384
193	0x3c85e62d	0.016345108
194	0x3cc44ca5	0.023962328
195	0xbcaea0f4	-0.021316983
196	0xb8478ff5	-4.7579368e-05
197	0x3c951ee8	0.018203214
198	0x3d0298b5	0.031883914
199	0xbc1fff21	-0.009765417
200	0xbce9e327	-0.028550697
201	0x3b90799b	0.0044090278
202	0x3cd8f889	0.026485698
203	0x3c3b7aa8	0.011442818
204	0x3c38c28e	0.011276854
205	0xbceb1d4c	-0.028700493
206	0x3bfdaec0	0.007741779
207	0x3c959113	0.018257653
208	0xbcfa6181	-0.030564072
209	0x3c1f52af	0.009724303
210	0x3d164e3c	0.036695704
211	0x3d2ec869	0.042671595
212	0x3c0be6dd	0.008538929
213	0x3d0d12ca	0.034441747
214	0xbcff2b3f	-0.031148551
215	0x3cc1010b	0.023560068
216	0xbcb00498	-0.021486565
217	0xbd1c3301	-0.03813458
218	0xbd03ca0c	-0.03217511
219	0x3c0994e2	0.008397313
220	0x3cbd31b8	0.023094997
221	0xbb7e0228	-0.003875861
222	0xbca6a071	-0.020340176
223	0x3cc20d8e	0.023688104
224	0xbc30e89a	-0.010797644
225	0xbc34e5a8	-0.011041082
226	0x3d179178	0.037003964
227	0x3d11dccf	0.03561097
228	0x3b6e16d3	0.0036329522
229	0x3c919b57	0.017774267
230	0x3c2c15ee	0.010503275
231	0x3d2cbbb6	0.042171203
232	0xbc9fbd7c	-0.019499533
233	0x3c28d4cd	0.010304642
234	0x3cea2a25	0.02858455
235	0xbd014d69	-0.031567965
236	0xbb54123d	-0.0032359504
237	0xbb8e2303	-0.00433767
238	0x3c9d05ba	0.01916777
239	0x3d11fbf0	0.035640657
240	0xbce31ca0	-0.02772361
241	0xbd1448e7	-0.036202338
242	0x3d0fffd5	0.03515609
243	0x3ce8f766	0.028438281
244	0x3aad9b15	0.0013245071
245	0x3c6041f6	0.013687601
246	0xbc2a54e8	-0.01039622
247	0xbd0b662a	-0.034032978
248	0x3cd6ae0d	0.02620604
249	0x3b6c39d3	0.0036045208
250	0xbd0491f1	-0.032365743
251	0xba2bf6a4	-0.00065598846
252	0x3c8d2e8d	0.017234111
253	0x3d2793fa	0.040912606
254	0xbca184a3	-0.019716566
255	0xbd16301e	-0.036666982

layer2.bias f4 [256]
0	0xbd11267b	-0.03543709
1	0x3d019986	0.031640552
2	0x3d04b32f	0.032397445
3	0xbcaebb29	-0.02132948
4	0x3c6d0f8d	0.01446904
5	0xbcabae19	-0.02095704
6	0x3c5f625e	0.013634292
7	0x3d087678	0.033316106
8	0x3bb88510	0.0056310967
9	0xbadc2ab8	-0.0016797399
10	0x3c4be372	0.012444364
11	0xbcd26001	-0.025680544
12	0x3caff169	0.021477418
13	0xbc183b5a	-0.009291494
14	0x3ca64d13	0.020300424
15	0xbc05bc46	-0.008162564
16	0xbd2fb032	-0.042892642
17	0x3cb86311	0.022508176
18	0xbb384237	-0.002811564
19	0x3b711c18	0.0036790427
20	0x3bdf65da	0.0068175616
21	0x3d03796d	0.032098223
22	0xbca927df	-0.020648895
23	0xbbaf385c	-0.0053472947
24	0x3c97304e	0.01845565
25	0xbd45783c	-0.048210368
26	0x3d27cb8d	0.040965606
27	0x3cd120e3	0.025528377
28	0xbc824ebb	-0.015906682
29	0x3c41f819	0.011838936
30	0x3d29f3c9	0.041492257
31	0xbc35f6aa	-0.011106173
32	0x3b985152	0.004648366
33	0xbd10eb83	-0.03538085
34	0xbd0b20f2	-0.033966966
35	0x3bc79f01	0.006091953
36	0x3c051263	0.0081220595
37	0xbc5c5f16	-0.013450405
38	0xbccc48ac	-0.024936996
39	0xbd2a4f91	-0.041579787
40	0x3c029dd6	0.007972201
41	0x3cb87fe8	0.022521928
42	0xbd2d1e22	-0.042265065
43	0xbd3e4776	-0.04645487
44	0xbc27b464	-0.01023588
45	0xbd1d89fe	-0.038461678
46	0xbcfe1ff2	-0.031021092
47	0x3a895245	0.0010476789
48	0xbd14c7c1	-0.036323313
49	0x3d2b9e8e	0.041899256
50	0x3ccfa54a	0.02534737
51	0xbd40c586	-0.047063373
52	0x3d1722e5	0.036898512
53	0xbcc40419	-0.023927735
54	0x3caab004	0.020835884
55	0x3cb00a62	0.021489326
56	0x3d02c272	0.03192372
57	0xbd01d40f	-0.031696375
58	0xbd05be3c	-0.032652125
59	0xbd06c766	-0.032905005
60	0xbcc33fa7	-0.023834063
61	0x3cf84dd8	0.030310556
62	0xbc4372a3	-0.011929187
63	0x3c6f2058	0.014595114
64	0x3c622653	0.0138030825
65	0x3d09f0a8	0.033676773
66	0xbd2fe04e	-0.042938523
67	0xbb097fe6	-0.0020980774
68	0xbca51c10	-0.020154983
69	0xbd08fc22	-0.033443578
70	0xbd16dee1	-0.036833648
71	0x3c26a8da	0.010172093
72	0x3c4a472e	0.012346072
73	0x3d209ecd	0.039213944
74	0x3cd451eb	0.025917968
75	0x3c18d4af	0.0093280515
76	0xbd0c59cb	-0.03426532
77	0x3cd28dd3	0.025702393
78	0x3c48c72f	0.01225452
79	0x3c5a1f2a	0.013313094
80	0xbbb38dc0	-0.0054795444
81	0xbcfd6f57	-0.03093688
82	0xbceac7e7	-0.028659774
83	0xbd02ada7	-0.03190389
84	0x3c1dca5e	0.009630768
85	0xbc7273d1	-0.014798121
86	0xbd378778	-0.044806927
87	0xbd128479	-0.035770867
88	0xbd2e47bd	-0.042548884
89	0xbc94457b	-0.018099537
90	0x3d152625	0.03641333
91	0xbcec77ff	-0.028865812
92	0x3b222137	0.0024739036
93	0xbd1ba3f5	-0.03799816
94	0xbd2fdc92	-0.04293496
95	0xbbdf1f8c	-0.0068091806
96	0xbcdff1f7	-0.027337058
97	0x3d2d0ab6	0.042246543
98	0x3cf2e530	0.0296503
99	0xbd3693bd	-0.044574488
100	0xbd06b62a	-0.03288857
101	0x3c5d2bc9	0.013499209
102	0xbc88777a	-0.016658533
103	0xbcf90357	-0.0303971
104	0xbd1e582f	-0.038658317
105	0x3d1f5ce3	0.038906943
106	0x3c1f11ea	0.009708861
107	0x3d1010d3	0.035172295
108	0x3b0e0ab1	0.0021673853
109	0xbcefcb5c	-0.029271774
110	0xbd1941c8	-0.03741625
111	0x3c708ed2	0.0146824885
112	0xbcd3e426	-0.025865626
113	0x3d02ec8b	0.031963866
114	0x3cf4e268	0.029893115
115	0xbce64ab2	-0.02811179
116	0xbc1f90f0	-0.009739146
117	0xbc8f2a9a	-0.017476369
118	0x3d10d7c0	0.035362005
119	0x3ae44d98	0.0017418144
120	0x3d198b01	0.03748608
121	0xbcda0e36	-0.026618104
122	0x3c6b9d6a	0.014380792
123	0x3c1bf09f	0.009517818
124	0xba546b77	-0.0008103172
125	0x3c5806b3	0.013185191
126	0xbb938987	-0.0045024785
127	0x3c75c64f	0.015000894
128	0x3c9c81bb	0.019104829
129	0x3c18133d	0.0092819305
130	0xbca96b08	-0.02068092
131	0xbc7fdfbc	-0.015617307
132	0x3c73fcb8	0.014891796
133	0x3c95d150	0.018288285
134	0x3c882a51	0.01662174
135	0xbd491bae	-0.049098663
136	0x3ca71a9d	0.020398432
137	0x3d174389	0.03692964
138	0x3cc93b56	0.024564426
139	0xbc4cf52a	-0.012509624
140	0xbc85f1ba	-0.016350616
141	0x3cd029b6	0.025410514
142	0x3d147419	0.03624353
143	0xbc62ad59	-0.013835275
144	0x3d28fd49	0.041257177
145	0x3d289c2a	0.041164555
146	0xbc88e8db	-0.016712597
147	0x3d32b2c7	0.043627527
148	0x3cfe8cdb	0.031073024
149	0xbc6f32c5	-0.014599507
150	0xbba770b8	-0.0051098727
151	0x3c7a4a0b	0.015276442
152	0xbc892c9d	-0.016744906
153	0x3c49f463	0.012326333
154	0xbd22160d	-0.03957181
155	0xbc0aafcc	-0.008464765
156	0x3c6b6519	0.014367365
157	0x3d19ad73	0.03751893
158	0xbbd6aa6e	-0.0065510785
159	0xbcb26c58	-0.021780178
160	0x3cfb5889	0.030681865
161	0xbd3071bd	-0.04307722
162	0xbd141541	-0.03615308
163	0xbd1bb38f	-0.038013037
164	0xbd126d30	-0.03574866
165	0xbd0c6bb8	-0.034282416
166	0xbbb90600	-0.005646467
167	0xbd31c5ac	-0.043401405
168	0xbcf6c303	-0.030122286
169	0xbd2617b0	-0.040549934
170	0x3cf228e6	0.029560518
171	0x3c37bfb9	0.011215144
172	0x3b3bfc82	0.0028684442
173	0x3d007880	0.031364918
174	0x3cff5a07	0.031170858
175	0xbaab1a78	-0.0013054153
176	0x3cac08d8	0.02100031
177	0xbce269a9	-0.027638273
178	0x3c7e3886	0.015516406
179	0x3cc25f8d	0.023727203
180	0x3cd7e146	0.026352536
181	0xbd246957	-0.040139522
182	0x3c9f1ca9	0.019422846
183	0x3c89bff7	0.016815169
184	0x3b86196e	0.004092387
185	0xbd148901	-0.03626347
186	0x3d04cd56	0.032422386
187	0xbd0fab95	-0.035075743
188	0xbd0d6006	-0.034515403
189	0x3d1b62c4	0.037935987
190	0x3d2aa89c	0.041664705
191	0xbbf87501	-0.0075823073
192	0x3c09ab1a	0.00840261
193	0x3c9dcb55	0.019261995
194	0xbc7ac96a	-0.01530681
195	0x3cf2313a	0.029564489
196	0xbc77efd3	-0.015132862
197	0x3ccfb04b	0.025352618
198	0xbc30054f	-0.010743453
199	0x3d27f9e9	0.041009817
200	0x3a7645d5	0.0009394561
201	0x3c6d171d	0.014470843
202	0x3cbc05b6	0.022951942
203	0x3cf16933	0.029469108
204	0xbc611488	-0.013737805
205	0xbd20ca7c	-0.039255604
206	0x38cb07f0	9.681273e-05
207	0x3cf4f3ad	0.02990135
208	0x3cdc3d8f	0.026884822
209	0xbc39cd6b	-0.011340479
210	0x3d1ad535	0.037800986
211	0x3cde6e78	0.027152285
212	0xbcafec77	-0.02147506
213	0x3d299a5c	0.041406974
214	0xbcd7b0e9	-0.026329475
215	0xbbafd794	-0.005366275
216	0xbd30521e	-0.043047063
217	0xbc39a0fd	-0.0113298865
218	0x3b3acf1a	0.002850479
219	0x3c0324d6	0.008004388
220	0xbccb8e57	-0.024848146
221	0x3cb9d59f	0.02268487
222	0x3c8191fd	0.015816683
223	0x3b017953	0.0019756153
224	0x3bf65419	0.0075173494
225	0x3d10b517	0.03532895
226	0x3c5e1dc5	0.013556902
227	0xbcb20cd0	-0.021734625
228	0x3d064031	0.03277606
229	0x3c016f87	0.007900125
230	0xbb232dfa	-0.002489923
231	0x3d15bcb9	0.036556933
232	0x3d0186f1	0.03162283
233	0xbce39e7d	-0.027785534
234	0xbc602749	-0.013681241
235	0xbb608f6d	-0.0034265176
236	0x3c9bad0a	0.01900341
237	0xbcc2db2b	-0.023786148
238	0x3d1a1707	0.037619617
239	0xbceea04c	-0.02912917
240	0x3c0bbcf4	0.008528937
241	0xb92e371f	-0.00016614467
242	0xbc70faa6	-0.014708197
243	0x3befdfaf	0.0073203663
244	0x3bf32198	0.007419776
245	0x3b195b3c	0.0023400327
246	0x3c0cbad6	0.008589467
247	0xbbbed792	-0.005824038
248	0xbc1a5ed8	-0.009422027
249	0x3d00678c	0.03134875
250	0xbc0a81c2	-0.008453788
251	0x3cbffcb4	0.023435928
252	0x3c595208	0.013264187
253	0x3d08837a	0.03332851
254	0x3aa0c2e0	0.0012265109
255	0x3ce91ab7	0.028455121

layer3.weight f4 [7, 256]
0	0xbcb1383b	-0.021633258
1	0xbd2153b3	-0.039386462
2	0xbd25394d	-0.04033785
3	0x3c14ca76	0.009081474
4	0xbd060e9a	-0.03272877
5	0x3d0ef3c0	0.034900427
6	0x3ca9cca5	0.020727465
7	0x3a181e6f	0.0005802875
8	0x3ca4a0e5	0.020096252
9	0x3d19f866	0.037590407
10	0x3cc5a1dd	0.024125034
11	0x3d27af4b	0.040938657
12	0x3c045ff9	0.008079522
13	0x3d0c300c	0.03422551
14	0xbc092dd3	-0.008372742
15	0xbd38ec31	-0.045147125
16	0x3ceb4045	0.02871717
17	0x3ae5fecd	0.001754725
18	0xbb0d5d8c	-0.002157065
19	0x3cd39fb3	0.025832986
20	0xbcda2bd7	-0.026632233
21	0x3d1202e5	0.03564729
22	0xbd1ba3e8	-0.03799811
23	0x3ca84b23	0.02054364
24	0xbd0ed800	-0.034873962
25	0xbc08d17a	-0.008350724
26	0x3b443535	0.002993894
27	0x3baf6dc6	0.005353662
28	0xbd05cc4c	-0.032665536
29	0xbc1d9960	-0.009619087
30	0x3c1d521a	0.009602094
31	0xbc0e0bde	-0.008669822
32	0xbc45e7ce	-0.012079192
33	0xbcd9dd68	-0.026594833
34	0x3d17cb8b	0.037059348
35	0xbd0c57be	-0.034263365
36	0xbd480e77	-0.04884192
37	0x3be8031e	0.0070804497
38	0x3d079050	0.03309661
39	0xbcbf4858	-0.023349926
40	0xbd038e3b	-0.032118063
41	0xbc1ff2cb	-0.009762476
42	0xbd2fe74d	-0.042945195
43	0xbc7feccf	-0.015620424
44	0xbd290dcc	-0.041272923
45	0xbce9195e	-0.028454479
46	0x3d2448af	0.04010838
47	0x3ba1eab0	0.004941307
48	0x3d2d33ac	0.042285606
49	0xbcbd6ba7	-0.023122622
50	0x3c2720aa	0.010200659
51	0xba55ce4a	-0.00081560446
52	0x3a708cea	0.0009176271
53	0xbc37bc40	-0.011214316
54	0x3d344849	0.04401425
55	0xbc3c272f	-0.0114839515
56	0x3ceb324a	0.028710503
57	0x3d1f2269	0.038851175
58	0xbc0da6ce	-0.008645726
59	0xbcef526d	-0.029214108
60	0x3c7327ef	0.014841064
61	0x3cfef45d	0.03112238
62	0xbcf08083	-0.029358154
63	0xbd30b8b9	-0.043144915
64	0xbcd8ea14	-0.026478805
65	0xbc971626	-0.018443178
66	0xbca816bb	-0.020518651
67	0x3c981574	0.018564917
68	0x3c36e8e0	0.01116392
69	0x3d174a3a	0.036936022
70	0x3b361bc4	0.0027787546
71	0x3d31e82a	0.0434343
72	0xbd0cba4d	-0.034357358
73	0xbce41399	-0.027841376
74	0xbd21b903	-0.03948308
75	0xbd1d0e59	-0.03834376
76	0x3ca06274	0.019578196
77	0x3d1a6180	0.03769064
78	0x3b8934ac	0.004187187
79	0x3cd94358	0.02652137
80	0x3cb34892	0.02188519
81	0xbd1f563c	-0.0389006
82	0xbba19768	-0.004931379
83	0x3a9110c2	0.0011067616
84	0x3d0cd081	0.034378532
85	0xbd219322	-0.039446957
86	0xbd20d67d	-0.039267052
87	0x3c9aab9f	0.018880663
88	0x3cd80a4b	0.026372096
89	0x3b45e039	0.0030193462
90	0x3cd78269	0.026307302
91	0x3c6f939d	0.014622596
92	0x3c95a384	0.018266447
93	0x3d2a95f0	0.041646898
94	0x3cecd1aa	0.02890857
95	0xbd17ed61	-0.037091617
96	0x3cc6bc62	0.02425975
97	0x3bf37bcc	0.007430529
98	0x3d31386a	0.04326669
99	0xbbcc4f59	-0.006235045
100	0xbba8dc10	-0.0051531866
101	0x3b9752f3	0.0046180426
102	0xbcfb2f4c	-0.030662201
103	0x3d1a718b	0.03770594
104	0x3cd4d895	0.02598218
105	0x3d007326	0.031359814
106	0x3cd25f2e	0.02568015
107	0xbd2a4bfd	-0.041576374
108	0xbc48c209	-0.012253293
109	0xbd261180	-0.040544033
110	0x3ca0ef82	0.019645456
111	0xbbf3c543	-0.007439287
112	0xbd229337	-0.039691176
113	0x3d0032d0	0.03129846
114	0xbd0ad2f6	-0.033892594
115	0x3c08f422	0.008358987
116	0xbd0e68ec	-0.03476803
117	0x3cd0ac69	0.025472837
118	0xbb5c82f2	-0.0033647385
119	0xbc0b30a2	-0.008495482
120	0x3b93c27f	0.0045092697
121	0x3d1eec32	0.038799472
122	0x3b732305	0.003709973
123	0x3b5856eb	0.0033010792
124	0xbc94fe1f	-0.01818758
125	0xbd127640	-0.035757303
126	0xbd0b0b9c	-0.03394662
127	0xbd6e23c4	-0.058139578
128	0x3c0378db	0.00802442
129	0xbc53769a	-0.012906695
130	0xbb61ec75	-0.0034473215
131	0x3c9b3341	0.018945338
132	0x3d14c39b	0.036319356
133	0x3c11b090	0.008892193
134	0x3aa54c6a	0.0012611274
135	0x3c8315e3	0.016001647
136	0x3b794e28	0.003804097
137	0x3c2192bd	0.009861645
138	0xbca33eba	-0.019927371
139	0xbb2638e8	-0.0025363509
140	0x3d070b6e	0.032969885
141	0xbbd53f58	-0.0065077953
142	0x3bd9cd06	0.006646755
143	0xbcb28bff	-0.021795271
144	0xbcdc3b94	-0.026883878
145	0x3d0fd6b0	0.03511685
146	0x3b48b0e1	0.0030623006
147	0x3d1556c2	0.03645969
148	0x3c9423bd	0.018083448
149	0xbc984579	-0.018587815
150	0xbc285ee5	-0.010276531
151	0x3d17c681	0.037054542
152	0x3cb51337	0.022103889
153	0xbc844745	-0.016147265
154	0x3cbb8462	0.022890273
155	0xbd15dc3f	-0.036586996
156	0x3b570668	0.0032810215
157	0xbca18f83	-0.019721752
158	0x3d1ae34b	0.03781442
159	0x3ca8a0bb	0.020584455
160	0x3af479a8	0.0018651979
161	0x3af7408a	0.0018863839
162	0xbd007d43	-0.03136946
163	0x3b4660a9	0.0030270016
164	0xbc3a924f	-0.011387422
165	0x3848420d	4.774523e-05
166	0xbbe0ff35	-0.0068663605
167	0x3b82565f	0.0039775814
168	0x39d695f9	0.00040929
169	0x3a215760	0.00061546825
170	0xbc73405e	-0.014846889
171	0x3cce61da	0.025193144
172	0x3c053f8a	0.008132825
173	0x3cf2dacf	0.029645352
174	0x3c1ccd13	0.009570378
175	0x3d0c010b	0.034180682
176	0xbc554696	-0.013017317
177	0xbc08cffe	-0.00835037
178	0xbd2bc8ff	-0.04193973
179	0x3c98c669	0.018649297
180	0xbd1fb686	-0.038992427
181	0xbcb54d4f	-0.02213159
182	0xbcda0bea	-0.02661701
183	0xbced18aa	-0.028942425
184	0xbc846776	-0.016162615
185	0x3c05d2ea	0.008167962
186	0x3ceebf60	0.02914399
187	0xbb249209	-0.0025111458
188	0x3d01a53f	0.03165173
189	0xbc369185	-0.011143093
190	0xbc0a488e	-0.00844015
191	0xbc489f58	-0.012245022
192	0xbcbd3185	-0.023094902
193	0x3d25c815	0.040474016
194	0x3d060db4	0.032727912
195	0xbcc0c89f	-0.023533164
196	0xbb537f20	-0.0032271817
197	0xbd0bf47a	-0.034168698
198	0xbc3618ea	-0.011114338
199	0x3bd7ecea	0.0065895217
200	0xbc75b8dd	-0.014997688
201	0x3aa8e9d0	0.0012887064
202	0xbd0b822b	-0.034059685
203	0x3c879f9a	0.016555596
204	0xbc2b2120	-0.010444909
205	0x3b1342c6	0.002247022
206	0x3c8a45f9	0.016879069
207	0xbad066ee	-0.0015899816
208	0x3a9e5cb6	0.0012082073
209	0x3d150149	0.03637818
210	0xbd02973c	-0.03188251
211	0x3d057792	0.032584734
212	0xbd21cd3c	-0.039502367
213	0x3d24bea0	0.040220857
214	0x3cbc4f7c	0.02298712
215	0x3b3779b5	0.0027996127
216	0x3ca7d63e	0.0204879
217	0x3cfdc980	0.030979872
218	0x3c810c71	0.015753003
219	0x3d0039a1	0.03130496
220	0x3d2e13fe	0.042499535
221	0x3d154366	0.03644123
222	0x3c42652d	0.0118649425
223	0xbccd3d2d	-0.025053585
224	0xbd7210cf	-0.05909806
225	0x3ca9679a	0.020679284
226	0xbc129589	-0.008946785
227	0xbd186565	-0.037206072
228	0x3d39d0d8	0.045365185
229	0x39e2d639	0.00043265687
230	0x3c94beb2	0.018157337
231	0xbc79fbc3	-0.015257779
232	0xbc15c325	-0.009140764
233	0x3a88e593	0.0010444395
234	0xbd32fcdb	-0.043698173
235	0xbc482a88	-0.0122171715
236	0xba1fb14a	-0.0006091787
237	0x3cf0ed04	0.029409893
238	0xbb812f1c	-0.0039423835
239	0xbcb61641	-0.022227408
240	0xbcda6624	-0.026660033
241	0x3b6d5b81	0.003621787
242	0x3d050f29	0.03248516
243	0xbd17b1d3	-0.03703482
244	0xbd13cbe4	-0.036083117
245	0xbc4cf68e	-0.012509955
246	0x3cfd263e	0.030902024
247	0x3d074e59	0.033033703
248	0x3cdcb897	0.026943488
249	0x3d32b3b3	0.043628406
250	0xbc474ca6	-0.0121642705
251	0xbc1d7782	-0.009611012
252	0xbd26f268	-0.04075852
253	0x3cc5d112	0.024147544
254	0x3c8ccc7a	0.017187346
255	0xbc57920b	-0.013157378

layer3.bias f4 [7]
0	0xbd1458c7	-0.036217477
1	0xbb6301e0	-0.0034638569
2	0x3cb45aae	0.022015896
3	0x3d688bcf	0.056773957
4	0xbb453f83	-0.003009767
5	0x3c30ab71	0.010783062
6	0x3d4b583e	0.0496447
