DQN/Models/_25_21_5_policy_net.pth (torch, 545104 bytes, 8 tensors)

layer1.weight f4 [256, 7]
0	0xbd364d9b	-0.044507604
1	0xbd7f7d14	-0.062375143
2	0x3c2ece0e	0.010669244
3	0x3cb916ad	0.02259382
4	0x3dcf9543	0.10135891
5	0x3d51e224	0.051241055
6	0xbda7a8fb	-0.08186527
7	0xbbdecd2c	-0.0067993607
8	0x3da68d95	0.081324734
9	0x3cc66d0c	0.02422192
10	0x3cb03f07	0.021514429
11	0x3d10a11d	0.0353099
12	0xbcfdbff0	-0.030975312
13	0xbe3be820	-0.18350267
14	0x3c69a837	0.014261297
15	0x3c7267fa	0.014795298
16	0xbb938c25	-0.0045027905
17	0x3d172e06	0.036909126
18	0xbd3562c8	-0.04428366
19	0xbda8dcb9	-0.082452245
20	0x3d08a64b	0.033361714
21	0x3d2fb825	0.042900223
22	0x3d8ed42c	0.06974062
23	0x3d3273ee	0.04356759
24	0xbd3e4d9e	-0.04646074
25	0x3d8f83a0	0.07007527
26	0x3d9d7314	0.07687965
27	0x3c2b5cfd	0.010459182
28	0xbda372b2	-0.07980861
29	0xbdc83157	-0.09775036
30	0x3b3ebbf3	0.0029103726
31	0x3d73b177	0.059495416
32	0x3d84e7ec	0.06489548
33	0x3d4a7d23	0.049435746
34	0xbc5661c8	-0.013084836
35	0xbc2f7192	-0.01070823
36	0xbca86c3a	-0.020559419
37	0xbccd0a34	-0.02502928
38	0x3d76a31f	0.06021416
39	0x3d241344	0.040057436
40	0x3c273afa	0.010206932
41	0xbdf631bc	-0.12021205
42	0x3aec7e66	0.0018043041
43	0x3d2f0da6	0.042737626
44	0xbd2148e9	-0.039376173
45	0x3d663ad0	0.05620843
46	0x3c08c819	0.008348488
47	0x3ceb4a7e	0.028722044
48	0xbe5c061c	-0.21486706
49	0x3c07fa9d	0.008299497
50	0xbd8881db	-0.06665393
51	0xbc90c5ca	-0.017672438
52	0x3d090a56	0.033457123
53	0x3d9615e8	0.07328397
54	0xbb917d42	-0.0044399807
55	0x3cc7b3e3	0.024377769
56	0xbd8d7f63	-0.06909063
57	0x3d3549c7	0.044259813
58	0x3d7e2c8c	0.062054202
59	0xbd2cd472	-0.04219479
60	0xbd922a66	-0.07136993
61	0x3a50b287	0.0007961173
62	0x3da207ad	0.0791162
63	0x3dae3ab3	0.0850729
64	0x3d3143f8	0.04327771
65	0xbd75927b	-0.059954148
66	0xbdb78d68	-0.08962518
67	0xbd24752d	-0.04015081
68	0x3d8975f4	0.06711951
69	0xbdf583f9	-0.119880624
70	0x3c219bc3	0.009863797
71	0xbd4568c9	-0.048195634
72	0x3c7e20da	0.015510762
73	0x3d5c0e88	0.053724796
74	0xbda2f5fa	-0.079570726
75	0xbd7d2002	-0.061798103
76	0x3cac1c34	0.021009542
77	0x3c785faf	0.0151595315
78	0x39e27148	0.0004319048
79	0xbd389361	-0.045062426
80	0x3d1ecb68	0.038768202
81	0x3ceca8cf	0.028889088
82	0xbc490edd	-0.01227161
83	0xbe26cc6e	-0.16288921
84	0xbcd9a834	-0.026569463
85	0xbd121b1d	-0.03567039
86	0xbd4878cc	-0.048943326
87	0x3cc9c59a	0.024630357
88	0x3d2440a7	0.04010072
89	0x3d5f1978	0.05446765
90	0x3e2d676f	0.16933988
91	0x3ce791fd	0.028267855
92	0x3d10ddf4	0.03536792
93	0x3d34b113	0.044114184
94	0x3d8aa7be	0.067702755
95	0xbc6c84f6	-0.014435997
96	0xbbc926aa	-0.0061386423
97	0x3dc2e1f7	0.095157556
98	0x3d6c6bdd	0.057720054
99	0x3d68435f	0.056704875
100	0x3ac7918d	0.0015225873
101	0xbc6cfa8c	-0.014464032
102	0xbd49359c	-0.04912339
103	0x3d05cef3	0.032668065
104	0x3e00e742	0.12588218
105	0x3c1c26fd	0.00953078
106	0xbd6203bf	-0.055179354
107	0x3d804e02	0.06264879
108	0xbc879f64	-0.016555496
109	0x3cb1d7c6	0.021709334
110	0xbd67be75	-0.05657812
111	0x3b2fcee9	0.002682621
112	0x3ce1c93c	0.027561776
113	0xbd25e967	-0.040505793
114	0x3d53b6e0	0.051688075
115	0xbd5d5b74	-0.054042295
116	0x3d44071b	0.04785834
117	0x3d1ca553	0.038243603
118	0xbe67f05e	-0.22650287
119	0xbd989437	-0.07450145
120	0xbd153d1f	-0.036435243
121	0x3ce842ea	0.02835222
122	0xbce075b2	-0.027399871
123	0x3ca76c9a	0.020437527
124	0x3d4ecbc5	0.0504873
125	0x3df71a97	0.120656185
126	0x3ccf4c6a	0.025304992
127	0xbda0baa8	-0.07848102
128	0x3b8577de	0.004073127
129	0x3d8f927b	0.07010361
130	0xbd9fcabb	-0.0780234
131	0xbd43f65e	-0.047842376
132	0x3c0f0556	0.0087292995
133	0x3d27d5c9	0.040975366
134	0x3d685ba0	0.056728005
135	0xbd9102d3	-0.07080617
136	0xba2e5e61	-0.0006651637
137	0xbc5d38f7	-0.013502351
138	0x3c969cd9	0.018385338
139	0x3e49ee34	0.19719774
140	0x3d7aedaf	0.06126183
141	0xbb9ed667	-0.004847336
142	0x3d99d008	0.07510382
143	0x3d0ff917	0.03514966
144	0xbd8eb55a	-0.06968184
145	0x3c9f03fa	0.019411076
146	0xbe14921b	-0.1450886
147	0xbca2f6e2	-0.019893114
148	0xbd559842	-0.052147157
149	0x3bb3a21b	0.005481971
150	0x3caf1b35	0.021375278
151	0xbd11be4e	-0.03558188
152	0xbc87f631	-0.016596885
153	0xbd8157ad	-0.06315551
154	0xbd7573c5	-0.05992486
155	0x3cb759a5	0.022381613
156	0xbda318a7	-0.079636864
157	0xbcce3ff4	-0.02517698
158	0xbd9229d6	-0.07136886
159	0xbcc24511	-0.023714574
160	0xbb01b7e9	-0.0019793457
161	0x3d0820fb	0.033234578
162	0x3d26439d	0.040591825
163	0x3d4fd129	0.05073658
164	0x3d12c0de	0.035828464
165	0x3d5b9776	0.05361124
166	0xbce91c27	-0.028455807
167	0xbd821d78	-0.06353277
168	0xbd8ee593	-0.069773816
169	0x3ccaa55d	0.024737054
170	0xbd4a56c3	-0.04939915
171	0x3bce364d	0.0062930943
172	0xbd12af5a	-0.03581176
173	0x3cc3c164	0.023895927
174	0x3d2d3f9c	0.04229699
175	0x3c9525ce	0.018206503
176	0x3bf7c415	0.0075612166
177	0x3ca64566	0.020296764
178	0xbd4d6f28	-0.050154835
179	0xbd9212eb	-0.071325146
180	0xbd32eb63	-0.043681514
181	0x3d360dec	0.04444687
182	0x3d671fc0	0.056426764
183	0xbcfac0a8	-0.030609444
184	0x3d99796a	0.07493861
185	0xbcd8ed09	-0.026480215
186	0x3d468069	0.048462305
187	0xbd1634c6	-0.036671422
188	0xbc22b1f5	-0.009930124
189	0x3d0db43b	0.03459571
190	0xbd4dc0b2	-0.050232597
191	0x3d23fb25	0.040034432
192	0x3ccb2f36	0.024802785
193	0x3d39e498	0.04538402
194	0xba3b7503	-0.000715092
195	0x3e192439	0.14955224
196	0xbd28fd94	-0.041257456
197	0xbcac0288	-0.0209973
198	0x3ca504a7	0.02014382
199	0x3d869c0a	0.06572731
200	0x3d43f409	0.047840152
201	0x3cd08952	0.025456104
202	0x3d9bf3aa	0.076148346
203	0x3d7223d3	0.059116196
204	0x3c8a5f48	0.016891137
205	0x3c0682b6	0.008209875
206	0x3d3a35ec	0.04546158
207	0x3d122802	0.035682686
208	0xbd2b2dc9	-0.04179171
209	0x3d92edf1	0.0717429
210	0x3cc52db4	0.024069645
211	0xbd71e6cc	-0.059057996
212	0x3bc62c4c	0.006047761
213	0xbcb237af	-0.021755068
214	0x3c1bf8ae	0.009519739
215	0x3da749b1	0.081683524
216	0x3c9ec914	0.01938299
217	0x3da1a276	0.07892315
218	0x3ce9de0f	0.028548269
219	0xbd05f98b	-0.032708686
220	0xbd3a1abd	-0.045435656
221	0xbd19f960	-0.03759134
222	0xbd289681	-0.041159157
223	0x3d467354	0.04844983
224	0x3d808394	0.062750965
225	0xbbd790b0	-0.0065785274
226	0xbd63f9e2	-0.05565823
227	0x39f71526	0.00047127268
228	0xbd6c2dd7	-0.057660904
229	0x3d554364	0.05206622
230	0x3d4991ad	0.049211193
231	0xbd549c54	-0.0519069
232	0x38e0f2cc	0.00010726377
233	0xbcf7cca8	-0.030248955
234	0xbd3851bf	-0.044999834
235	0xbc476513	-0.012170094
236	0xbd6ccf7a	-0.057815053
237	0xbd0f5e4c	-0.035002038
238	0xbd53094e	-0.051522546
239	0x3cbd1874	0.02308295
240	0xbd080b71	-0.033214036
241	0xbbc91ee8	-0.0061377175
242	0xbc645a70	-0.013937578
243	0x3d1a7437	0.037708487
244	0xbd90db98	-0.07073134
245	0xbdb37456	-0.08762424
246	0x3ca6638d	0.020311141
247	0xbdc3a36d	-0.09552655
248	0x3cfd8188	0.030945554
249	0x3d8901a7	0.06689768
250	0xba80327f	-0.0009780674
251	0x3e0072ac	0.12543744
252	0x3ce302d8	0.027711317
253	0xbc1fe160	-0.009758323
254	0xbd19e52b	-0.037572067
255	0xbcdd2652	-0.026995812

layer1.bias f4 [256]
0	0xbd22f03b	-0.039779883
1	0xbcce1a86	-0.025159132
2	0x3cdf3f33	0.027251815
3	0x3d886a5f	0.06660914
4	0x3b897665	0.004195022
5	0xbd46ab66	-0.048503302
6	0xbdac6f71	-0.08419693
7	0xbbcb5271	-0.006204896
8	0xbd3880a9	-0.045044575
9	0x3d2f89c9	0.04285601
10	0xbd3b8f51	-0.045790974
11	0x3d58583d	0.052818526
12	0x3e0bba25	0.13645227
13	0x3cc38283	0.023865944
14	0x3c9490b4	0.018135406
15	0xbcc9f738	-0.024654016
16	0xbdb02226	-0.08600263
17	0xbd123c90	-0.03570229
18	0x3ca1419d	0.019684607
19	0x3d9f4431	0.07776678
20	0xbd91dd29	-0.07122261
21	0xbd327f0c	-0.043578193
22	0xbcb38106	-0.02191211
23	0xbbfd97c3	-0.0077390387
24	0x3d4ece3c	0.05048965
25	0x3c2c72f8	0.010525458
26	0xbd0630d0	-0.032761395
27	0x3c9c2a2e	0.019063082
28	0x3d906dc9	0.0705219
29	0x3dbb665a	0.091503814
30	0x3c43c301	0.011948348
31	0xbd96fe80	-0.07372761
32	0xbd7ca1b9	-0.06167767
33	0x3c9d6f17	0.01921801
34	0x3d409fc0	0.04702735
35	0xbd7038e0	-0.05864799
36	0xbc93d0e3	-0.01804394
37	0xbc40bf71	-0.011764393
38	0xbc0d60eb	-0.008629064
39	0xbd85f193	-0.06540217
40	0xbd903413	-0.07041182
41	0x3cbc220f	0.02296546
42	0x3d924c01	0.07143403
43	0x3ca738f7	0.020412905
44	0xbd8c43aa	-0.068488434
45	0x3d4bad4b	0.049725812
46	0xbd7b2b7f	-0.061320778
47	0x3d77158a	0.060323276
48	0xbd964b02	-0.07338525
49	0x3c7644be	0.015031038
50	0xbd17e9d9	-0.03708825
51	0xbd5a644f	-0.053318318
52	0x3ce05d4c	0.027388237
53	0x3d014c65	0.031566996
54	0x3ab9bcd4	0.0014170655
55	0xbc8f65e4	-0.01750464
56	0xbc22dbbc	-0.009940084
57	0x3b8cb549	0.004294072
58	0x3caf51c3	0.021401292
59	0x3c70c497	0.014695308
60	0xbc2d16f8	-0.010564558
61	0x3d79e6b9	0.06101105
62	0x3cc24676	0.023715239
63	0x38a61430	7.919257e-05
64	0xbd001f6c	-0.031279966
65	0x3cde3b49	0.027127879
66	0x3c773e9f	0.015090614
67	0xbc927fe9	-0.017883258
68	0xbd598c03	-0.05311204
69	0x3db536e5	0.08848361
70	0x3d218216	0.0394307
71	0x3d1ceb3e	0.038310282
72	0xbd58095a	-0.052743293
73	0xbb887f75	-0.0041655847
74	0xbd0fcd66	-0.035107993
75	0x3db8df36	0.09026949
76	0x3a5421b1	0.00080921786
77	0xbca85213	-0.020546949
78	0x3cc12e4c	0.023581646
79	0x3bbd4b11	0.005776771
80	0x3cff8772	0.031192515
81	0xbd83a08f	-0.064271085
82	0x3b35f590	0.0027764775
83	0x3cf1350d	0.029444242
84	0x3c7734c3	0.015088263
85	0xbd53396e	-0.05156844
86	0x3c2ee0b5	0.0106736915
87	0xbd571427	-0.052509453
88	0xbb0a4b55	-0.002110203
89	0x3d266284	0.040621296
90	0x3df10953	0.117693566
91	0xbc147609	-0.009061345
92	0x3cd2dff6	0.025741559
93	0x3cc3fa06	0.023922931
94	0xbc5ffd63	-0.013671252
95	0xbc98abb1	-0.018636556
96	0x3cc64acb	0.024205586
97	0xbd85a17e	-0.06524943
98	0x3cd79e0a	0.026320476
99	0xbb3aae48	-0.0028485227
100	0x3db57edf	0.08862089
101	0x3d379c91	0.044827048
102	0x3d14be25	0.03631415
103	0xbd718ef9	-0.05897424
104	0x3d4ab751	0.04949123
105	0x3d39b16d	0.045335222
106	0xbb3f7a56	-0.0029217205
107	0x3c257642	0.010098996
108	0xbd1121ff	-0.03543281
109	0x3d5a50e4	0.0532998
110	0xbcd4f6da	-0.025996614
111	0x3dc31fa5	0.0952752
112	0x3d9de0eb	0.07708915
113	0x3d186e37	0.037214484
114	0x3d0e644b	0.034763616
115	0x3d1c9f75	0.038238008
116	0xbd0cdef0	-0.034392297
117	0xbd05f6a0	-0.032705903
118	0x3d578b09	0.05262283
119	0xbd91938a	-0.07108219
120	0xbc8caa80	-0.017171144
121	0x3daefceb	0.08544334
122	0xbd95ee4e	-0.07320844
123	0xbd3d8512	-0.046269484
124	0xbc6e9918	-0.014562868
125	0x3bde4fbd	0.006784408
126	0xbd74295c	-0.059609756
127	0x3d15fc30	0.036617458
128	0xbd3101cd	-0.043214608
129	0x3c4bb8fd	0.012434241
130	0x3d6ecffe	0.058303826
131	0xbd93ac70	-0.07210624
132	0xbca3248e	-0.019914892
133	0x3d519232	0.051164813
134	0x3d71f7ee	0.059074335
135	0x3b39dca7	0.0028360279
136	0xbdb5f838	-0.088852346
137	0xbbcb5535	-0.006205226
138	0x3da3bbb2	0.079947844
139	0x3d44a371	0.048007432
140	0x3c74309a	0.014904166
141	0xbce36eb2	-0.027762745
142	0xbcb5f37b	-0.022210827
143	0xbd96e029	-0.07366974
144	0xbdad91c4	-0.08475068
145	0xbc810fa8	-0.015754536
146	0xbcef14ce	-0.029184725
147	0x3cfb43e0	0.030672014
148	0xbcb48c9a	-0.0220397
149	0x3d5e0abe	0.054209463
150	0xbcc199aa	-0.023632843
151	0x3d89e481	0.06733037
152	0xbaa26acd	-0.0012391448
153	0x3d6deb72	0.058085866
154	0x3d9bb087	0.07602029
155	0xbcaafe4d	-0.020873213
156	0xbd64ac38	-0.055828303
157	0x3d6fdb2a	0.05855862
158	0x3da195ba	0.07889886
159	0xbd08de07	-0.033414867
160	0xbcdf33ac	-0.027246319
161	0x3c9370d6	0.01799814
162	0x3d2add18	0.041714758
163	0x3dcbdb49	0.09953935
164	0x3d23d8da	0.040001728
165	0x3d300af2	0.04297919
166	0x3d3ad1fa	0.045610406
167	0x3ce6cc89	0.028173702
168	0xbc7c4fcf	-0.015399887
169	0x3ce23cc0	0.027616858
170	0x3d959f0b	0.07305726
171	0x3da9ea99	0.08296699
172	0xbd5fc4b7	-0.05463096
173	0x3ccde378	0.02513288
174	0x3d920f6b	0.07131847
175	0xbceaf618	-0.0286818
176	0x3d49159b	0.04909287
177	0x3db63535	0.08896867
178	0x3cc523bb	0.02406489
179	0xbb82959d	-0.0039851204
180	0x3cb7ac5b	0.022421053
181	0x3d59e4c4	0.053196684
182	0x3d169c08	0.036769897
183	0xbd8b8a09	-0.068134375
184	0xbd52bcda	-0.051449634
185	0x3cf332c6	0.029687297
186	0x3d5ecebb	0.054396372
187	0x3d572144	0.05252196
188	0x3d57bb5b	0.05266891
189	0xbd1de2df	-0.03854644
190	0x3d92e843	0.07173207
191	0x3d8c4048	0.06848198
192	0xbdd8788d	-0.10569868
193	0x3bddd019	0.006769192
194	0xbdad64df	-0.08466505
195	0x3c43d431	0.011952446
196	0x3c8f15f7	0.017466528
197	0xbdc2877e	-0.09498499
198	0xbd77fd50	-0.060544312
199	0xbc94c65c	-0.018160991
200	0xbd7b8180	-0.061402798
201	0x3d9a7c67	0.07543259
202	0x3d8cb394	0.06870189
203	0x3d2acb78	0.04169795
204	0x3d159e36	0.036527835
205	0xbd98fd9f	-0.074702494
206	0xbd1b13d0	-0.03786069
207	0x3d693a07	0.056940105
208	0xbcbc7d6e	-0.023009028
209	0xbd312f36	-0.043257914
210	0x3db58e08	0.08864981
211	0x3d71c95d	0.059029926
212	0xbcba17b7	-0.022716386
213	0xbd159705	-0.036520977
214	0x3d5e757c	0.05431126
215	0xbb0cbf92	-0.002147649
216	0x3c879654	0.016551174
217	0x3d5dd925	0.054162163
218	0xbd413334	-0.04716797
219	0x3beb327c	0.007177649
220	0xbd0af9f3	-0.033929776
221	0x3dcbec8d	0.09957228
222	0x3d650c33	0.055919837
223	0xbb950965	-0.004548239
224	0x3c84f55a	0.016230274
225	0xbd9ae928	-0.07564002
226	0x3d2ff6c8	0.04295996
227	0xbcdac928	-0.026707247
228	0x3d955ee4	0.072934896
229	0x3d11efd9	0.035629127
230	0x3d5d8e59	0.05409083
231	0x3d2ec882	0.042671688
232	0x3da2195f	0.079149954
233	0x3dd851e5	0.10562495
234	0x3b198da0	0.0023430362
235	0x3d8e79f9	0.06956858
236	0xbd28215e	-0.041047446
237	0xbcfc6f35	-0.030814746
238	0x3ccd17b3	0.025035715
239	0x39886e5b	0.00026022163
240	0x3ce17a10	0.027524024
241	0x3d3ca8fa	0.046059586
242	0x3d98d4b3	0.07462444
243	0xbd89fafd	-0.06737325
244	0xbc03713c	-0.008022603
245	0xbd3376e3	-0.04381455
246	0x3d832107	0.06402784
247	0x3da22d1d	0.07918761
248	0xbd547388	-0.05186799
249	0xbd61af25	-0.05509867
250	0x3b9d2aa4	0.004796343
251	0xbc98a535	-0.018633464
252	0xbd73e795	-0.059547026
253	0x3d5d6c5d	0.05405842
254	0xbd08802d	-0.033325363
255	0xbd2c314b	-0.042039197

layer2.weight f4 [256, 256]
0	0xbbc0d55c	-0.0058848094
1	0x3c36e484	0.011162881
2	0xba869347	-0.0010267281
3	0x3b15a1e4	0.002283209
4	0x3c16704b	0.009182046
5	0x3bd78910	0.0065776184
6	0x3bbbb106	0.00572789
7	0xbc657451	-0.014004783
8	0xbb2c0dc5	-0.0026253324
9	0x3b97af6d	0.0046290667
10	0x3c1c01c4	0.009521905
11	0xbc6ffb4d	-0.014647317
12	0xbc11f140	-0.008907616
13	0x3b9e9fe1	0.0048408364
14	0xbba8edf8	-0.005155321
15	0x3bf8384c	0.0075750705
16	0xbaba0529	-0.0014192212
17	0x3c15fdd5	0.009154757
18	0x3bd9921c	0.006639732
19	0xbc6efe7d	-0.014587042
20	0x3bdb95a4	0.006701188
21	0xbbf4eefd	-0.0074747787
22	0x3b9600fd	0.0045777545
23	0xbaff55c6	-0.0019480519
24	0x3bd55507	0.00651038
25	0xbba6f871	-0.0050955345
26	0x3c071c2d	0.008246464
27	0xbc4bddea	-0.012443045
28	0xbc714b3a	-0.014727408
29	0xbc0875e6	-0.00832889
30	0xbc22be99	-0.009933137
31	0xbb918c9c	-0.004441811
32	0xba62db52	-0.0008653897
33	0x3b94ef8a	0.004545157
34	0x3a56723a	0.0008180473
35	0x3bbd7288	0.0057814755
36	0x3c292626	0.010324037
37	0x3bae1cd0	0.0053134933
38	0x3b76268d	0.00375596
39	0x3b26fa63	0.0025478832
40	0xbc34f15b	-0.011043872
41	0x39f1033a	0.00045969506
42	0x3c4d1734	0.012517739
43	0x3b8319a9	0.0040008617
44	0x3bb7fb1f	0.0056146528
45	0x3bb7155c	0.005587263
46	0xbc44b869	-0.012006857
47	0xbc4f4c9b	-0.0126525415
48	0x3b791b95	0.0038010825
49	0x3bcf2c1d	0.0063223974
50	0xbbe386aa	-0.0069435434
51	0x3b4a3cc0	0.0030858964
52	0xbb853256	-0.0040648384
53	0xbc450f3c	-0.012027558
54	0x3c20698b	0.009790788
55	0x3c285052	0.010273056
56	0x3c261855	0.010137637
57	0x3b22f243	0.0024863638
58	0xb988f4ed	-0.00026122425
59	0xbc2d87fb	-0.010591502
60	0xbc2c0219	-0.010498547
61	0xbc71ea28	-0.0147653
62	0x3aa99f36	0.0012941125
63	0xbbb58e41	-0.0055406396
64	0x3ba86b93	0.005139777
65	0xbc1169ef	-0.008875354
66	0xbb381cc0	-0.0028093308
67	0xbb6183a0	-0.003441073
68	0xbbc27968	-0.005934883
69	0xbc44ebff	-0.0120191565
70	0xbbbadf04	-0.005702855
71	0xbc4df0f6	-0.012569657
72	0x3be127e0	0.0068712085
73	0x3bfc9b9b	0.0077089793
74	0xbbcbd3ef	-0.006220333
75	0x3c064b75	0.008196701
76	0x3bc153d4	0.0058998857
77	0xbc3fbd92	-0.011702912
78	0xbb3b6462	-0.0028593768
79	0xbc509c34	-0.012732554
80	0xbb63c5ca	-0.0034755343
81	0x3a3bcacd	0.00071637036
82	0x3bbfc4f4	0.005852336
83	0x3ba95b82	0.0051683793
84	0xbc77fa9a	-0.015135432
85	0xbc4f1995	-0.012640377
86	0x3bfa975c	0.007647438
87	0x3bc880ba	0.006118861
88	0xbc1f9582	-0.009740235
89	0xbba09810	-0.0049009398
90	0xbbb6be3d	-0.0055768774
91	0x3c25a08c	0.010109078
92	0xbbef5b7d	-0.0073046074
93	0xbb5504f0	-0.0032504164
94	0xbb9ae6ce	-0.004727221
95	0xbb3c7b66	-0.0028760075
96	0xbb18c085	-0.002330811
97	0xbc2594e4	-0.010106299
98	0x3b59bc74	0.00332239
99	0xb9d3c99a	-0.0004039526
100	0x3b761c77	0.0037553587
101	0x3c1f8b7a	0.009737844
102	0xbbacdaeb	-0.0052751205
103	0x3bd059c7	0.0063583585
104	0x3c1c13d6	0.009526214
105	0x3c114a6d	0.008867842
106	0xba180ae6	-0.0005799964
107	0x3b98fdcf	0.004668928
108	0x3c0bda24	0.0085358955
109	0xbc21ba2f	-0.00987105
110	0xbc4f1056	-0.012638172
111	0xbc715c07	-0.014731414
112	0x3b85a023	0.0040779277
113	0xbc1b7486	-0.009488231
114	0xbb2e5b70	-0.0026604794
115	0xbbddbe88	-0.006767098
116	0x3bfddb42	0.007747085
117	0xbc1ca28c	-0.009560239
118	0x3c0e3d59	0.008681619
119	0xbb763b01	-0.003757179
120	0xbc1cfa27	-0.009581125
121	0xbbe64ea8	-0.0070284195
122	0x39824ad3	0.0002485128
123	0x3b52deb4	0.0032176198
124	0xbc613840	-0.013746321
125	0x3c427023	0.011867556
126	0xbc0d933f	-0.008641063
127	0xbc058dd2	-0.008151488
128	0xbbbffd17	-0.005859028
129	0xb9389b85	-0.00017605543
130	0xbb181db6	-0.0023211068
131	0x3943e949	0.00018683555
132	0xbbd4c7c0	-0.0064935386
133	0x3c083cb5	0.008315255
134	0xbb12a209	-0.0022374413
135	0xbbd3f016	-0.0064678295
136	0xbb85a427	-0.0040784064
137	0xbc53fca8	-0.012938656
138	0x3b89bf9f	0.004203751
139	0x3c31d88c	0.010854851
140	0xbc484934	-0.012224484
141	0xbb902dc2	-0.004399986
142	0x3c4bd888	0.012441762
143	0x3b3293bd	0.0027248703
144	0xbb4d71eb	-0.0031348418
145	0xbc0848f7	-0.008318177
146	0x3c464e2a	0.012103597
147	0xbc175b3a	-0.009238059
148	0xbb6e4b9c	-0.0036360985
149	0x3bc4d864	0.006007241
150	0xbb9b3671	-0.0047367145
151	0x3b3b0ded	0.0028542236
152	0xbbf4c445	-0.007469686
153	0x3c28c3e1	0.010300607
154	0x3b8a83b9	0.0042271283
155	0x3c07e73b	0.008294876
156	0xbc17193e	-0.009222327
157	0xbb75ac01	-0.0037486556
158	0x3c3202c9	0.010864922
159	0x3c12474f	0.008928134
160	0xbc372183	-0.011177423
161	0xbbbd88ed	-0.005784145
162	0x3ac9e968	0.0015404643
163	0xbbea6f1f	-0.00715436
164	0x3b0aa172	0.0021153358
165	0xbc10e4fd	-0.008843658
166	0xbb90b1b9	-0.0044157174
167	0xbc63202f	-0.013862654
168	0x3c50bb4c	0.012739968
169	0x3c15e383	0.009148481
170	0x3c34c6d3	0.0110337315
171	0x3b368239	0.0027848615
172	0xbae4f738	-0.0017468696
173	0xbb8aaaf7	-0.0042318064
174	0xbaf9ef9f	-0.0019068605
175	0xbb060aaa	-0.0020453134
176	0x3c0121ef	0.007881626
177	0x3c1a5f7d	0.00942218
178	0xbbc7f951	-0.006102719
179	0xbc0f579a	-0.008748913
180	0x3b392ec9	0.0028256646
181	0x3bf2e2b5	0.0074122795
182	0x3b6d099c	0.0036169058
183	0x396180dd	0.00021505677
184	0x3b8ce586	0.0042998223
185	0x3c1604d4	0.009156425
186	0xbc458f51	-0.012058095
187	0xbbf6b443	-0.007528813
188	0x3b2fd97a	0.0026832507
189	0xbac064c3	-0.0014678467
190	0x3b268ffb	0.002541541
191	0xbc253125	-0.010082518
192	0x3ae1a5dd	0.0017215569
193	0xbc35e0fd	-0.011101005
194	0x3aebf0e8	0.0018000873
195	0x3c51237e	0.01276481
196	0xbb7cefe4	-0.0038595134
197	0xbb5bf8fd	-0.0033565157
198	0x3b83707d	0.0040112124
199	0xbc68004f	-0.01416023
200	0xbbd1d2c6	-0.0064033
201	0xbc34e937	-0.011041931
202	0xbbe8c573	-0.007103616
203	0x3c294c67	0.010333157
204	0xbbdd2f6b	-0.0067500374
205	0xbb7742cd	-0.0037729025
206	0xbc026d5d	-0.007960645
207	0x3c3e9cb7	0.011634043
208	0xbbb42f86	-0.0054988293
209	0x3a30d463	0.0006745515
210	0x3c0e4e0b	0.008685599
211	0xbc4b7824	-0.0124187805
212	0xbb8e8941	-0.004349858
213	0x3b1044b2	0.0022013602
214	0xbb753055	-0.0037412841
215	0x3bd37022	0.0064525763
216	0xbc202f23	-0.009776863
217	0x3afb69b8	0.0019181287
218	0xbc544d12	-0.012957828
219	0xbb5fe58f	-0.0034163927
220	0xbc05d096	-0.008167407
221	0x3bab3284	0.005224528
222	0xbb94a71b	-0.004536522
223	0xbc40911d	-0.011753348
224	0xbc1a7570	-0.009427413
225	0x3c0620e4	0.008186553
226	0xbc46a09d	-0.012123254
227	0x3b7b9b20	0.0038392022
228	0x3c356874	0.011072267
229	0xbbbbb3a4	-0.005728202
230	0x38a526e2	7.8750556e-05
231	0xbc4b1a29	-0.012396374
232	0x3c42c9b8	0.011888914
233	0xbc31e50d	-0.010857833
234	0xbbb54226	-0.005531567
235	0xbc56d854	-0.0131131
236	0xbbc4b2ed	-0.006002775
237	0x3b006cc4	0.001959608
238	0x3b62f523	0.0034630976
239	0xbb8b83d4	-0.0042576585
240	0xbb9db4d0	-0.0048128143
241	0xbc247bf1	-0.010039316
242	0x3b2f4378	0.0026743095
243	0xbc19de6e	-0.00939141
244	0xbba63372	-0.0050720507
245	0x3c2b33a3	0.010449323
246	0x3bfb0080	0.0076599717
247	0x3c406b1e	0.011744289
248	0xbc454450	-0.012040213
249	0xbb07d1e8	-0.002072448
250	0x3bbe93bf	0.0058159526
251	0xbc51c6ee	-0.012803776
252	0xba6657f5	-0.00087869103
253	0x3bbaae45	0.005697044
254	0xbbb5cb38	-0.005547907
255	0x3c24e600	0.010064602

layer2.bias f4 [256]
0	0x3ba3a011	0.0049934466
1	0xbc56a887	-0.0131017035
2	0x3d39b8cf	0.045342263
3	0x3bc03374	0.0058655087
4	0xbb3c8de9	-0.0028771108
5	0xbc7f7dbd	-0.015593943
6	0x3af4194f	0.0018623265
7	0xbc2afbb4	-0.010435987
8	0xbb9bf28f	-0.00475914
9	0xbbd72222	-0.0065653482
10	0x3b8d1eb6	0.0043066395
11	0xbc828920	-0.015934527
12	0x3c3a5ecd	0.011375141
13	0x3bc94d60	0.006143257
14	0xbc0e65f8	-0.008691303
15	0xbb4d1101	-0.0031290653
16	0x3be5f56d	0.0070177824
17	0x3d423b72	0.047419973
18	0xbc16de01	-0.009208203
19	0x3cf9fe33	0.03051672
20	0xbadb266a	-0.0016719822
21	0x3d24d578	0.040242642
22	0x3d507cff	0.050900456
23	0x3cd3124b	0.025765559
24	0xbc2ffd01	-0.010741473
25	0xbc3e5fd4	-0.011619527
26	0x3b8682fd	0.0041049705
27	0x3bee017a	0.0072633596
28	0x3c0886de	0.008332936
29	0x3d66090f	0.056160983
30	0xbb8ac081	-0.004234374
31	0x3afa2826	0.0019085451
32	0xbbf35079	-0.0074253646
33	0x3c0492b3	0.008091616
34	0xbbe4c1cd	-0.0069811107
35	0x3b919198	0.004442405
36	0x3cb54660	0.022128284
37	0x3bc68f7d	0.0060595856
38	0x3ac52393	0.0015040509
39	0x3be0d2fb	0.0068610883
40	0x3d0c4173	0.034242105
41	0x3bf4349d	0.007452561
42	0x3d054123	0.032532822
43	0x3cdedf0e	0.02720597
44	0x3c20b1d5	0.009808023
45	0x3c217a6f	0.009855851
46	0xbc4ae023	-0.01238254
47	0x3b1f4195	0.0024300565
48	0x3bacdfc2	0.0052756974
49	0xbbc1cf8f	-0.0059146355
50	0xbb891c29	-0.004184265
51	0xbc34070f	-0.010988011
52	0x3b2dfed3	0.0026549592
53	0x3a4d44de	0.00078303914
54	0x3b75ea85	0.0037523818
55	0x3beab3ba	0.0071625384
56	0x3cc4c25a	0.024018455
57	0x3d04d145	0.032426137
58	0xbc968559	-0.018374132
59	0xbc6355b3	-0.013875413
60	0x3c1cd4a5	0.009572183
61	0xbb10eda2	-0.0022114296
62	0xbb12423a	-0.0022317306
63	0xbb7b0915	-0.0038304974
64	0x3d11fac4	0.03563954
65	0x3ba03653	0.0048892885
66	0x3d2f9fe9	0.04287711
67	0xbc37aaad	-0.011210126
68	0x3c2f04af	0.010682269
69	0x3d4a881a	0.049446203
70	0x3cd92ae0	0.026509702
71	0x3d6554b2	0.055988975
72	0xbbb69c29	-0.005572815
73	0x3c2e1b3b	0.010626609
74	0x3c4672f3	0.012112367
75	0x3d05cabe	0.032664053
76	0x3b3e721d	0.0029059716
77	0x3b498c22	0.0030753692
78	0xbbd8ed60	-0.006620094
79	0xbbcd68dc	-0.0062686037
80	0x3c23224c	0.0099569075
81	0xbc360d76	-0.011111608
82	0xbab38d47	-0.001369872
83	0xbce1e726	-0.02757604
84	0x3d66ee84	0.05637981
85	0xbc51cf44	-0.012805764
86	0x3d0b84df	0.034062263
87	0xbc7a6cb2	-0.015284704
88	0x3bbcbae4	0.005759584
89	0xbb849bfc	-0.004046915
90	0x3c1d580f	0.009603514
91	0x3b9e0d57	0.0048233676
92	0x3c40f5cf	0.011777355
93	0x3d77af10	0.060469687
94	0x3ae116b5	0.0017172905
95	0x3d595c7b	0.053066712
96	0x3d3d356e	0.046193533
97	0x3c12505e	0.008930294
98	0xbbcb2d8e	-0.006200499
99	0x3d277b0f	0.040888842
100	0x3b9f4d16	0.0048614843
101	0xbbc1afdf	-0.005910858
102	0xbb8873a3	-0.0041641756
103	0xbb01eda3	-0.001982548
104	0x39e9fe1d	0.00044630552
105	0x3c493882	0.012281539
106	0x3d4f9d01	0.05068684
107	0xbbeb7d73	-0.0071865856
108	0xbb220125	-0.002471992
109	0x3ba31316	0.0049766405
110	0xbc973cae	-0.018461552
111	0xbc9be31d	-0.019029194
112	0x3b52e8ba	0.0032182173
113	0xbc00bb24	-0.007857118
114	0x3b74988d	0.0037322373
115	0xbbdee57e	-0.00680226
116	0x3caccd84	0.021094091
117	0xbae38920	-0.0017359592
118	0x3d3bf8d0	0.045891583
119	0xbc274ab7	-0.0102106845
120	0x3c32bf43	0.010909858
121	0xbb239e7e	-0.0024966295
122	0x3d4af6bc	0.04955171
123	0x3c767895	0.015043397
124	0x3c840b00	0.016118526
125	0x3cf24c62	0.029577438
126	0x3b2c6c21	0.0026309567
127	0x3c0bc775	0.008531441
128	0x3c278ce6	0.010226464
129	0xbd10934a	-0.035296716
130	0x3d96583e	0.073410496
131	0x3d1ba361	0.037997607
132	0xbcbffeea	-0.023436982
133	0xbc935200	-0.017983437
134	0xbc19d514	-0.009389181
135	0xbc9a38f6	-0.01882599
136	0x3d5d2b34	0.05399628
137	0x3bffd0c8	0.007806871
138	0x3c7fc863	0.015611741
139	0x3c3895d4	0.011266191
140	0x37c5ddb7	2.3587474e-05
141	0xbb2dceb6	-0.0026520914
142	0x3d566147	0.052338865
143	0x3bfd86e7	0.007737029
144	0x3c18c478	0.009324186
145	0x3d5a7776	0.053336583
146	0xbbe4cca6	-0.006982404
147	0x3d1b2f36	0.03788682
148	0x3d1ad309	0.037798915
149	0xba71ee8d	-0.0009228967
150	0x3bbfa4a3	0.0058484836
151	0x3d18a831	0.037269775
152	0x3c542aed	0.012949687
153	0xbc70d4fa	-0.014699215
154	0xbc91653a	-0.017748464
155	0x3d28fa82	0.041254528
156	0xbc02f107	-0.007992036
157	0x3d38d995	0.045129377
158	0x3bbca687	0.0057571563
159	0xbcb4a7a8	-0.022052601
160	0xbaf13c8f	-0.0018404889
161	0x3cdf8000	0.027282715
162	0x3b831f97	0.0040015685
163	0x3b2252c7	0.0024768577
164	0x3ba31492	0.0049768174
165	0xbb60a81e	-0.0034279893
166	0x3d243435	0.04008885
167	0xbc113704	-0.008863214
168	0xbc2367ff	-0.009973525
169	0xbc2242e8	-0.009903647
170	0x38356eb9	4.325688e-05
171	0x3ba996da	0.0051754536
172	0x3b3ddf20	0.0028972104
173	0xbc4e3277	-0.012585274
174	0xbadc7f69	-0.0016822639
175	0xbb903ec2	-0.0044020126
176	0xbbf68d47	-0.007524166
177	0x3bbc7caf	0.005752168
178	0x3c184cd7	0.009295664
179	0xba46ff83	-0.0007591175
180	0x3d353035	0.044235427
181	0x3d00f45e	0.031483047
182	0xba97eccf	-0.001159096
183	0x3ba8f5ff	0.005156278
184	0x3c26d683	0.0101829795
185	0x3d7c9c46	0.06167247
186	0xbc0941a3	-0.008377465
187	0x3d58228b	0.052767318
188	0xbc7e27c6	-0.015512412
189	0x3c3ee386	0.0116509255
190	0x3cfd3468	0.030908778
191	0xbc815991	-0.015789779
192	0x3bc6ea84	0.006070437
193	0x3c41f036	0.011837056
194	0x3c3d6001	0.011558534
195	0x3b7145f3	0.0036815375
196	0x3b39434f	0.0028268879
197	0x3b8b5c77	0.004252966
198	0x3d1c0fc3	0.03810097
199	0x3c555966	0.0130218025
200	0xbc16df96	-0.0092085805
201	0xbc5eeed7	-0.013606749
202	0x3c209f34	0.009803582
203	0xbc026b54	-0.007960159
204	0x3c5db767	0.013532496
205	0xbb17ab56	-0.0023142896
206	0x3d465102	0.0484171
207	0x3c889af6	0.016675454
208	0x3bd2dc93	0.006434986
209	0xbb947767	-0.0045308354
210	0x3d5a18a0	0.05324614
211	0x3c0e9e9e	0.0087048095
212	0xbbdc24fc	-0.006718276
213	0x3c9b86f0	0.018985242
214	0x3b29c1c6	0.0025902851
215	0xbbacd5ed	-0.0052745254
216	0x3c07ae06	0.0082812365
217	0x3bca898f	0.006180949
218	0xbb769626	-0.0037626117
219	0x3d79d367	0.060992625
220	0xbbf0ba4f	-0.0073464285
221	0x3d04b108	0.032395393
222	0xbc407b16	-0.011748096
223	0x3bc5b31d	0.006033315
224	0x3bf07353	0.0073379665
225	0x3bda61b4	0.006664479
226	0xb9d54c23	-0.00040683252
227	0x3bb2bec7	0.0054548713
228	0x3acd4b92	0.001566278
229	0x3cfe1206	0.031014454
230	0x3d173b3c	0.036921725
231	0x39bc961b	0.00035969992
232	0x3d4f4485	0.050602455
233	0x3c0d5e02	0.00862837
234	0xbb8fe9a5	-0.0043918663
235	0x3bbb6154	0.0057183895
236	0x3d2b73bc	0.04185842
237	0xbc5d50de	-0.01350805
238	0x3c1615a4	0.009160433
239	0xbc18b70e	-0.009320987
240	0xbb2da3e5	-0.0026495394
241	0xba94f395	-0.0011364097
242	0x3d2ee75c	0.04270111
243	0x3d6400f4	0.05566497
244	0x3c0aa853	0.008462983
245	0x3d8739ca	0.06602819
246	0xb9bd8bc5	-0.00036153026
247	0x3afe0ec2	0.001938306
248	0xbbf1d30a	-0.007379894
249	0x3ba4f77d	0.0050343857
250	0x3b845036	0.004037882
251	0xbd1461af	-0.03622597
252	0x3d33b0cd	0.043869782
253	0x3bac8cf4	0.0052658264
254	0xbc438a6c	-0.011934858
255	0xbc2e27c9	-0.010629603

layer3.weight f4 [256, 256]
0	0xbc0c986b	-0.008581261
1	0xbbeadcb3	-0.0071674227
2	0xb9acb59b	-0.00032941703
3	0xbc05ede5	-0.008174394
4	0xbc226ed6	-0.009914121
5	0xbc4640a9	-0.012100377
6	0x3c569229	0.013096371
7	0xbc0ac23a	-0.008469159
8	0xba3d6547	-0.00072248693
9	0xbc2b892a	-0.010469714
10	0xbbf17667	-0.007368851
11	0x3c113908	0.008863695
12	0x3be610ce	0.0070210462
13	0x3c4f6837	0.012659124
14	0xbc42bb19	-0.011885428
15	0x3de46d34	0.11153641
16	0xbb9fdc12	-0.0048785293
17	0x3bfa9f64	0.0076483954
18	0xbb779203	-0.0037776239
19	0x3b8c58c7	0.004283044
20	0x3c7a5122	0.015278133
21	0x3c2f9fdc	0.010719266
22	0x3c440bd0	0.011965707
23	0x3cc0265f	0.023455797
24	0xbc333a63	-0.010939213
25	0x3b85f767	0.0040883305
26	0x3c556d52	0.013026552
27	0xbb10f77a	-0.0022120164
28	0xbc113c25	-0.008864437
29	0x3bafe0f7	0.005367394
30	0x3c2573a2	0.01009837
31	0x3cddc4d8	0.027071401
32	0x3cc0fabc	0.02355706
33	0xbaf0452d	-0.0018331163
34	0x3b0bc806	0.002132894
35	0x3c204de9	0.0097842
36	0x3c6ab7f1	0.014326082
37	0x3a1d91ab	0.0006010781
38	0xbbe1324d	-0.0068724514
39	0x3c2467e3	0.010034534
40	0x3cbc97e7	0.023021651
41	0xbb51259c	-0.0031913286
42	0x3c9d18eb	0.01917692
43	0x3d04d425	0.03242888
44	0x3be3b889	0.0069494885
45	0xbc455a77	-0.012045494
46	0xbbce6d93	-0.0062996834
47	0xbb436f01	-0.0029820802
48	0x3c0a82da	0.008454049
49	0x38cbb97a	9.714342e-05
50	0x3c2aeb21	0.010432036
51	0x3bce3295	0.006292651
52	0x3c298341	0.010346235
53	0xbc232262	-0.009956928
54	0x3d0827f6	0.033241235
55	0xbc27d7c9	-0.010244318
56	0x3b745523	0.003728219
57	0x3a527e86	0.0008029718
58	0xbd814ad1	-0.06313098
59	0x3bc054f7	0.0058695036
60	0x3c1e329e	0.009655623
61	0x3baddc88	0.0053058304
62	0xbb0698a5	-0.002053776
63	0xbb46b7f6	-0.0030322052
64	0x3c9e0f34	0.019294359
65	0xbc6ab8da	-0.014326299
66	0x3ca948fb	0.020664683
67	0x3c532f38	0.012889676
68	0x3b777d49	0.0037763885
69	0x3c42a589	0.011880287
70	0x3d0d8cb5	0.034558017
71	0x3c472e28	0.012157001
72	0xbc185bc0	-0.009299219
73	0x39ee00d1	0.00045395506
74	0xbd2e9d26	-0.042630337
75	0x3cc77c5b	0.02435129
76	0xbb9999d4	-0.004687527
77	0xbc20f475	-0.009823908
78	0x3ca3e042	0.020004395
79	0xbbe5cb3b	-0.0070127524
80	0x3b2f2ec7	0.0026730762
81	0x3cef7cff	0.029234407
82	0xbd2ce9a8	-0.04221502
83	0xbd840cef	-0.064477794
84	0x3c9f6b62	0.019460384
85	0x3c14bb43	0.00907785
86	0x3cf91bc5	0.03040875
87	0xbb91775d	-0.004439278
88	0x3c153b3c	0.009108361
89	0x3a9d360f	0.001199426
90	0x3b4053eb	0.0029346894
91	0xbc2b5ed1	-0.010459618
92	0xbc057d34	-0.0081475265
93	0x3c707f90	0.014678851
94	0xba4318e2	-0.00074423675
95	0x3c934388	0.017976537
96	0xbbd56c02	-0.0065131197
97	0x399a1a27	0.00029392654
98	0x3b785548	0.0037892628
99	0x3b30276f	0.0026878973
100	0x3b99954b	0.0046869866
101	0x3a548716	0.00081072876
102	0x3b46c5db	0.0030330333
103	0x3d831674	0.06400767
104	0x3cebb43f	0.028772471
105	0xbb74b748	-0.003734069
106	0xbc582631	-0.013192699
107	0x3c13930f	0.0090072295
108	0x3c2c820e	0.010529054
109	0x3c586c60	0.013209432
110	0xbc0737d2	-0.008253055
111	0x3bc20842	0.0059213946
112	0x3c09061d	0.008363274
113	0x3cc59aac	0.024121605
114	0x3c118314	0.008881349
115	0x3ba3bff5	0.0049972483
116	0xba8127c7	-0.0009853774
117	0xbc18e0a3	-0.009330901
118	0x3b8b88a5	0.0042582327
119	0xbc422227	-0.011848963
120	0xbc50e876	-0.0127507355
121	0xbc29456d	-0.010331494
122	0x3cea2024	0.028579779
123	0x3d278423	0.0408975
124	0xbc0431b0	-0.008068487
125	0x3b495b86	0.0030724718
126	0xbbd835d2	-0.0065982128
127	0x3c50897a	0.0127280895
128	0xbbf6829d	-0.0075228945
129	0x3cb9d0d0	0.022682577
130	0xbb6eb499	-0.0036423563
131	0x3bc83a63	0.006110476
132	0x3c6b40bb	0.014358695
133	0xbc45b79a	-0.0120677
134	0x3b0496ee	0.0020231563
135	0x3e360f95	0.17779382
136	0xbac138b3	-0.0014741629
137	0xbb9d23b9	-0.0047955182
138	0x3c79bcd9	0.015242779
139	0xbaa3cf95	-0.0012497777
140	0x3aec0f25	0.0018009885
141	0x3ce90fdc	0.028449945
142	0x3c87c3f1	0.016572924
143	0x3c29667e	0.010339377
144	0x3b3ab8ac	0.002849142
145	0x3ac691a4	0.0015149605
146	0xbb97f777	-0.0046376544
147	0x3cb87d45	0.02252067
148	0xbb6a4256	-0.0035745106
149	0xbc526273	-0.012840855
150	0x3cb16f63	0.021659559
151	0xbb2e5706	-0.0026602163
152	0xbb55136c	-0.0032512797
153	0xbc00bc75	-0.007857432
154	0xbb8e6a6c	-0.0043461826
155	0xbb4cc9df	-0.0031248254
156	0xbc1bff07	-0.0095212525
157	0x3c9e7e98	0.019347474
158	0x3bb7a02b	0.0056038103
159	0xb7b585e2	-2.1639225e-05
160	0x3bff3554	0.0077883396
161	0x3d059ca7	0.0326201
162	0x3b8dd075	0.0043278285
163	0x3c65ccad	0.014025849
164	0x3b12e8de	0.0022416632
165	0xbc112088	-0.008857854
166	0x3c9e76f7	0.019343836
167	0xbc79f464	-0.015256021
168	0xbd082f92	-0.03324849
169	0x3c605f4b	0.013694595
170	0x3ba462a3	0.005016641
171	0xb99bb701	-0.00029700252
172	0x3ba6f215	0.0050947764
173	0x3c29993f	0.010351478
174	0x3bb63727	0.005560774
175	0x3b640d9f	0.0034798158
176	0xbbc11ce5	-0.005893337
177	0xbaae8b95	-0.0013316745
178	0x3ab0f8ef	0.0013501922
179	0xb9d554fa	-0.00040689838
180	0x3c58c348	0.013230152
181	0x3c38203c	0.011238154
182	0x3a159a80	0.0005706921
183	0x3ad0fa06	0.0015943653
184	0x3b810a56	0.0039379997
185	0x3d012ae5	0.031535048
186	0xbc0bcefe	-0.0085332375
187	0x3d020cbb	0.031750422
188	0xba9e8810	-0.0012094993
189	0xbb65e1c6	-0.0035077198
190	0x3cb0a703	0.021564012
191	0x3c4e7195	0.012600322
192	0xba88e59f	-0.0010444409
193	0x3cab7013	0.020927465
194	0x3bf56c4c	0.0074897166
195	0x3c4bf807	0.012449271
196	0xba4a297b	-0.00077118695
197	0x3c4c48f7	0.012468568
198	0x39cc774a	0.0003899879
199	0x393deec0	0.00018113386
200	0xbbff79a9	-0.0077964854
201	0x3b28ea7a	0.0025774525
202	0x3c403543	0.011731449
203	0x3bea60b3	0.0071526407
204	0xbae2cae9	-0.0017302904
205	0x3afd953a	0.0019346841
206	0xbc2c4649	-0.010514804
207	0x3c8a6fa1	0.016898932
208	0x3be4ff0a	0.006988411
209	0x3b68e656	0.0035537682
210	0x3c220d90	0.009890929
211	0x3b4e57e8	0.0031485502
212	0xbbcf71c0	-0.0063306987
213	0xbc850565	-0.016237924
214	0xbb7b54be	-0.003835007
215	0xbc3c5542	-0.011494936
216	0x3c3ff10c	0.011715185
217	0x3d5877fd	0.052848805
218	0x3c174f7e	0.009235261
219	0x3bc9f974	0.0061637703
220	0x3b47c5c3	0.0030482865
221	0x3ce2c82d	0.027683342
222	0xbac7091c	-0.001518521
223	0x3b75343f	0.0037415174
224	0xbb04264b	-0.0020164426
225	0x3c21a7be	0.009866653
226	0x3c3faf3f	0.011699497
227	0xbb540a5a	-0.0032354803
228	0xbc3707d9	-0.011171305
229	0x3c0da257	0.008644662
230	0xbc6fd157	-0.014637313
231	0xbc12a012	-0.008949297
232	0xbb936a7a	-0.004498777
233	0x3c219bd7	0.009863815
234	0x3bc4b140	0.006002575
235	0xbbc8eafc	-0.006131528
236	0x3b3f9b46	0.0029236837
237	0xbbeff5d5	-0.0073230066
238	0xbb8ca767	-0.004292417
239	0x3bd0ecf6	0.006375904
240	0x3c4c9ab8	0.01248806
241	0x3cb2ac22	0.021810595
242	0xba06a86a	-0.000513679
243	0xbb13fb0e	-0.002258006
244	0x3b882107	0.004154328
245	0x3cbd72ad	0.02312597
246	0xbb9b99c1	-0.0047485535
247	0x3c6784c8	0.014130779
248	0x3b91533b	0.0044349707
249	0xbc3d0085	-0.011535768
250	0x3be53c60	0.0069957227
251	0xbc7792e1	-0.015110702
252	0xbb3b76b8	-0.0028604697
253	0x3bd0c984	0.006371679
254	0xba8b5992	-0.0010631552
255	0x3c45de87	0.01207698

layer3.bias f4 [256]
0	0x3d279bf6	0.04092022
1	0xbd3ac7a7	-0.04560056
2	0xbc81610c	-0.015793346
3	0x3b02fd06	0.001998724
4	0x3d7b920e	0.061418585
5	0xbc2da3cf	-0.010598137
6	0x3b6c310d	0.0036039979
7	0x3baeef06	0.0053385524
8	0x3d57536a	0.052569784
9	0x3c108329	0.0088203335
10	0x3c336127	0.010948456
11	0xbbdfb3df	-0.006826862
12	0xbb6a5091	-0.0035753588
13	0x3b9e4547	0.004830036
14	0x3b6253cd	0.0034534812
15	0x3b44ee79	0.0030049367
16	0xbc1434a6	-0.0090457555
17	0xbc46c7c8	-0.0121325925
18	0x3d8a0389	0.067389555
19	0x3c2aeb7c	0.01043212
20	0xbb3a0b45	-0.0028388065
21	0xbbb5f9cb	-0.0055534593
22	0x3d73cb01	0.05951977
23	0xbda00c20	-0.07814813
24	0x3d5ddab2	0.054163642
25	0xbca865ff	-0.020556448
26	0x3d99a0c9	0.075013705
27	0xbcc11411	-0.023569139
28	0xbc47899b	-0.012178804
29	0x3c22e68e	0.009942664
30	0xbbff3745	-0.007788571
31	0x3d682ba7	0.056682255
32	0x3a0c0d21	0.00053425325
33	0xbb9e51e0	-0.0048315376
34	0x3d54f463	0.051990878
35	0x3d258717	0.040412035
36	0x3d5b04c0	0.053471327
37	0xbce25464	-0.027628131
38	0xbadaf099	-0.0016703784
39	0x3a577eb8	0.00082204817
40	0x3b81ea48	0.003964696
41	0x3dae28ba	0.08503862
42	0xbd4f3556	-0.050587974
43	0x3d69e397	0.057101812
44	0x3d2c5a18	0.042078108
45	0xbcdb4f89	-0.026771324
46	0xbca1ac3b	-0.019735446
47	0x3d19d809	0.037559543
48	0x3d83efbf	0.06442212
49	0xbc4da261	-0.012550921
50	0x3d5ed322	0.05440057
51	0xbc63ce20	-0.0139041245
52	0xbc827850	-0.01592651
53	0x3b647be7	0.003486389
54	0xbc29fef3	-0.010375726
55	0xbc530a91	-0.012880937
56	0x3d4b0413	0.049564432
57	0x3d480a4e	0.048837952
58	0xbca21bf3	-0.019788718
59	0xbc3bb764	-0.011457298
60	0xbc5c12f5	-0.013432254
61	0x3b988f87	0.0046557817
62	0x3d9a31f2	0.075290576
63	0xbc7a2298	-0.015267037
64	0x3d7d95d5	0.06191047
65	0x3d42895f	0.04749429
66	0x3bd250b8	0.006418314
67	0xbc58c3a5	-0.013230239
68	0xbbe7e089	-0.007076327
69	0x3d2b12af	0.041765865
70	0xbb939efd	-0.004505037
71	0xbc3cdf6c	-0.011527877
72	0xbb565daa	-0.0032709637
73	0xbc13da85	-0.009024267
74	0x3b464ae0	0.0030257031
75	0x3b3480bb	0.002754255
76	0x3d63f0f1	0.0556497
77	0x3d5e6b5d	0.05430161
78	0xbc6991af	-0.014255925
79	0xbc067c9d	-0.008208421
80	0xbc3fa2b4	-0.011696506
81	0x3d88b247	0.06674629
82	0xbbf23a1d	-0.0073921815
83	0xbc1b2b7f	-0.0094708195
84	0xbc0132e4	-0.007885668
85	0x3b963498	0.0045839064
86	0x3b19a95d	0.0023446896
87	0xbc27fa29	-0.010252514
88	0xbd3d967e	-0.0462861
89	0x3be5706a	0.007001926
90	0xbc4f2c26	-0.012644803
91	0x3d2edbdf	0.042690154
92	0xbbb6eade	-0.0055821976
93	0x3bd0d114	0.0063725803
94	0x3cbc66ce	0.02299824
95	0xbbfc4157	-0.007698219
96	0x3d0f4830	0.034980953
97	0x3d13d324	0.03609003
98	0x3d47d71e	0.048789136
99	0x3d4be207	0.049776103
100	0xbb05c514	-0.0020411657
101	0xbb43c4bb	-0.00298719
102	0xbd14754e	-0.036244683
103	0xbc16e38b	-0.009209524
104	0x3bac65b2	0.0052611465
105	0xbbb7a4c7	-0.00560436
106	0xbb3526b1	-0.002764147
107	0x3d904e5f	0.07046198
108	0xbd1bc5a4	-0.03803028
109	0x3bb09b76	0.005389626
110	0xbcad1cbf	-0.021131871
111	0x3d5dff3e	0.054198496
112	0x3c485c1c	0.012228992
113	0x3db0c274	0.08630839
114	0x3d914164	0.070925504
115	0xbcbc88f9	-0.023014532
116	0xbc1bd89d	-0.009512094
117	0xbbccfaa2	-0.0062554637
118	0x3d62c8a4	0.055367127
119	0xbb5cae8a	-0.003367337
120	0x3c55a554	0.013039906
121	0xbb7d660f	-0.0038665568
122	0xbc9316f6	-0.017955285
123	0x3d749863	0.05971564
124	0x3d4f3126	0.05058398
125	0xbc790c4c	-0.015200686
126	0xbc53fd66	-0.012938833
127	0xbc1cd4d2	-0.009572225
128	0x3d49af8a	0.049239673
129	0xbc11aa53	-0.008890706
130	0x3b9241b5	0.0044633993
131	0xbc67d118	-0.014148973
132	0xbbceb6e6	-0.0063084243
133	0x3bf7accc	0.007558441
134	0xbc411734	-0.011785317
135	0x3c5b62a4	0.013390217
136	0xbc1d901a	-0.009616876
137	0xbc56c00a	-0.013107309
138	0x3d9c9917	0.07646387
139	0x39c70dbb	0.00037966468
140	0xbab1d2ca	-0.0013566848
141	0x3bd924d8	0.0066267066
142	0xbc6a44af	-0.014298602
143	0x3d38812a	0.045045055
144	0xbaea8d45	-0.0017894885
145	0x3db95df7	0.090511255
146	0xbbede17d	-0.0072595463
147	0x3c30db9c	0.010794546
148	0x3d78aafb	0.060709935
149	0x3d2eced6	0.042677723
150	0x3d75a9ad	0.05997627
151	0x3c20b572	0.009808885
152	0x3d7a7812	0.061149664
153	0xbc52f5ea	-0.012876013
154	0x3b86b811	0.004111298
155	0x3d8fa5e8	0.07014066
156	0xbaa3efb2	-0.0012507348
157	0x3bdd513c	0.0067540687
158	0x3d8e7177	0.069552355
159	0x3d564df5	0.05232044
160	0x3d214c48	0.039379388
161	0x3d5f849d	0.05456983
162	0xbd069641	-0.032858137
163	0x3c13e5f7	0.009026996
164	0x3c317535	0.010831167
165	0x3cf99a8f	0.030469207
166	0x3d4cf81d	0.050041307
167	0xbb7e0c2d	-0.0038764582
168	0xbc1b6588	-0.009484656
169	0xbb848614	-0.0040443037
170	0xbb6aec63	-0.0035846464
171	0x3d8f5e74	0.070004374
172	0x3d32197b	0.04348133
173	0x3bc9783a	0.0061483653
174	0x3d9f7d8d	0.07787619
175	0x3b59a9b6	0.0033212728
176	0xbc0c3c35	-0.008559276
177	0xbc1bfedb	-0.0095212115
178	0xbc4720cb	-0.012153815
179	0x3a23674f	0.0006233351
180	0x3d5e4725	0.054267067
181	0x3c2c3110	0.010509744
182	0xbc1072c7	-0.008816428
183	0xba246701	-0.00062714523
184	0x3be5dd49	0.0070149046
185	0xbb8c0d9d	-0.0042740838
186	0xbd0416fb	-0.03224848
187	0xbb83c1d5	-0.0040209093
188	0x3d51bc55	0.051204998
189	0xbbb46602	-0.0055053243
190	0x3d2852a4	0.041094437
191	0x3b713535	0.0036805396
192	0xbc88b223	-0.016686505
193	0xbc36d129	-0.011158266
194	0x3ba03449	0.0048890454
195	0x3c418208	0.011810787
196	0xbbf1d098	-0.0073796026
197	0x3d64f6c9	0.055899415
198	0x3994f4e1	0.0002841121
199	0x3c2a7261	0.010403247
200	0x3cf8550d	0.030313993
201	0xba87603e	-0.0010328365
202	0x3d7eab29	0.06217495
203	0xbbfd6a98	-0.007733654
204	0xbbdc6c6b	-0.0067267916
205	0xbcc80a07	-0.024418844
206	0xbc264404	-0.010148052
207	0xbd2905d3	-0.04126532
208	0xbac6480a	-0.001512767
209	0xbbce6ff4	-0.006299967
210	0xbbbdccf8	-0.0057922564
211	0xbcbb0f3d	-0.022834415
212	0x3c2ea4e5	0.010659431
213	0x3c1597a0	0.0091303885
214	0x3d6c6986	0.057717822
215	0xbc8a2303	-0.016862398
216	0xbd69ddfd	-0.05709647
217	0x3c1eacd0	0.009684756
218	0x3d997b19	0.07494182
219	0x3d6f000a	0.058349647
220	0xbb115ca3	-0.002218046
221	0x3d8f1a79	0.06987471
222	0xba11b840	-0.00055587664
223	0xbd809c9f	-0.06279873
224	0x3d71fa2d	0.059076477
225	0xbb97a6c1	-0.004628033
226	0xbc1118b8	-0.008855991
227	0xbb3c20ac	-0.0028705997
228	0xbb14b79a	-0.0022692443
229	0x3db0ca26	0.08632307
230	0xbc5225aa	-0.012826363
231	0xbc4ebdec	-0.012618523
232	0x3b0fa33d	0.0021917366
233	0x3daa5e45	0.08318762
234	0x3d7d0e47	0.061781194
235	0x3a09c099	0.00052548345
236	0x3d695572	0.056966253
237	0xbbc510b0	-0.006013952
238	0xbc10111d	-0.008793143
239	0x3d3d202c	0.04617326
240	0xbc46e243	-0.012138906
241	0x3c30f3d7	0.010800323
242	0x3cbef298	0.023309037
243	0xbc507cfa	-0.012725109
244	0xbbd291bc	-0.0064260643
245	0xba524fe4	-0.0008022769
246	0x3c1fb18c	0.00974692
247	0xbb4454d4	-0.0029957788
248	0xbc446130	-0.011986062
249	0x3d80bc70	0.062859416
250	0xbb438ffe	-0.0029840465
251	0xbcdda11e	-0.027054366
252	0xbd020849	-0.031746183
253	0xbb8bcf5d	-0.004266663
254	0x3c286b03	0.01027942
255	0x3d7570de	0.05992209

layer4.weight f4 [7, 256]
0	0x3d033e84	0.03204204
1	0xbd70034c	-0.058596894
2	0xbb20e61f	-0.0024551225
3	0xbbef02a1	-0.0072940146
4	0x3cb0fa8d	0.021603847
5	0xbc534aa2	-0.012896212
6	0xbc32671d	-0.010888842
7	0xbd0e7e68	-0.03478852
8	0x3cddbcd6	0.027067583
9	0x3c87f1ea	0.016594846
10	0xbc47973f	-0.012182056
11	0x3bc4bb0b	0.0060037426
12	0x3e297f1f	0.16552399
13	0xbd82cdf4	-0.06386939
14	0x3bae7da1	0.0053250347
15	0x3a8cc114	0.0010738694
16	0xbcc1bcd8	-0.023649618
17	0xbb9782a0	-0.004623726
18	0x3cfa2beb	0.03053852
19	0xbc39832e	-0.01132278
20	0xbbd8d1ec	-0.0066168215
21	0xbc6137d3	-0.01374622
22	0x3cd6ffac	0.02624496
23	0xbb7b298f	-0.0038324331
24	0x3cb82375	0.022477845
25	0xbd07a258	-0.033113807
26	0x3cada6c2	0.02119768
27	0xbe049fbe	-0.12951562
28	0xbd8154f1	-0.063150294
29	0xbc34d081	-0.011036039
30	0x3a8db9f3	0.0010812863
31	0x3d6986f2	0.05701346
32	0xbbb323f5	-0.005466933
33	0xbbdb460f	-0.0066917012
34	0x3c862a23	0.016377514
35	0x3ce9bcb7	0.028532369
36	0x3c734691	0.014848367
37	0xbc9e0d1d	-0.019293362
38	0xbb23390c	-0.0024905829
39	0x3a6bf43a	0.0009000931
40	0xb7481eda	-1.1928112e-05
41	0x3c868cf5	0.016424635
42	0x3b4e0223	0.003143438
43	0x3c5c1e68	0.013434984
44	0x3cb5a985	0.02217556
45	0xbccb0f5a	-0.024787594
46	0xbdbf9b2b	-0.09355768
47	0x3cf7d329	0.030252056
48	0x3d1f160f	0.038839396
49	0xbc0aad81	-0.008464218
50	0x3df525e1	0.119701155
51	0x3ae2b6f8	0.001729696
52	0xbe61bf88	-0.2204572
53	0x39d904dd	0.0004139309
54	0x3c0e5a8f	0.008688583
55	0x3c2c986b	0.010534386
56	0x3cdfaaba	0.027303088
57	0x3d273828	0.04082504
58	0x3d314fbc	0.04328893
59	0x3d9b9092	0.07595934
60	0xbd2dea97	-0.04246005
61	0x3c099c94	0.008399148
62	0x3cb65776	0.022258501
63	0xbb71fc61	-0.0036924111
64	0x3cd9dc4a	0.0265943
65	0x3bb2008a	0.005432193
66	0x3c2138a4	0.009840164
67	0x3c39e0b0	0.011345074
68	0xbc05c237	-0.00816398
69	0x3c7af93c	0.015318211
70	0x3bc16904	0.0059024114
71	0x3c24c87d	0.010057566
72	0xbba69166	-0.005083251
73	0x3a4048b8	0.00073350547
74	0xbc49a337	-0.01230698
75	0x3a83ec5a	0.0010064945
76	0x3cb8ecfd	0.022573942
77	0x3cb6b569	0.0223033
78	0xbc194851	-0.0093556205
79	0x3ba5945e	0.005053087
80	0xbb2dcb65	-0.0026518938
81	0x3cbd8a68	0.023137286
82	0x3c72b7f5	0.014814367
83	0xbc12f24a	-0.008968899
84	0x3b8ad457	0.0042367387
85	0xbc86645a	-0.016405273
86	0xbb42c29c	-0.0029718047
87	0xbd1bcc79	-0.038036797
88	0x3a3d903e	0.00072312716
89	0x3cf54841	0.02994168
90	0xbb1d3b93	-0.0023991808
91	0x3c9d7ba4	0.019223996
92	0xbbc0a688	-0.005879227
93	0xbc145153	-0.009052592
94	0xbbbbabd5	-0.005727271
95	0xbb838bf4	-0.0040144864
96	0x3ccda954	0.025105156
97	0x3d099e97	0.03359851
98	0x3d0a5394	0.033771113
99	0x3cfa72ea	0.030572373
100	0xbbb2b5c3	-0.0054537966
101	0x3bc600cb	0.006042575
102	0xbda159bf	-0.07878446
103	0xbcff9cda	-0.031202722
104	0xbdcdadc0	-0.10042906
105	0x3c2f3403	0.010693553
106	0xbc1c6873	-0.009546387
107	0x3c9c82d8	0.01910536
108	0x3c9cd303	0.019143587
109	0x3c204254	0.009781439
110	0xbc666f39	-0.0140646035
111	0x3c866dfb	0.016409865
112	0xba4ee538	-0.00078924326
113	0x3c94904d	0.018135214
114	0x3ca0d0b7	0.019630773
115	0x3d13c34f	0.036074933
116	0x39850d38	0.00025377586
117	0xbbc7cde8	-0.006097544
118	0x3cbd85e0	0.023135126
119	0x399b58e1	0.00029630124
120	0x3b2fa168	0.0026799086
121	0x3c485767	0.01222787
122	0xbd2f0080	-0.042725086
123	0x3ca89ee3	0.020583576
124	0x3cbe8db3	0.023260927
125	0x3c8eb125	0.017418453
126	0x3bdecc1c	0.006799234
127	0x3c3f6831	0.011682556
128	0x3cbaa06f	0.022781579
129	0x3b42fdd8	0.0029753353
130	0x3b4ed6f2	0.0031561223
131	0xbcef8256	-0.029236954
132	0xb7a0162a	-1.9083807e-05
133	0x3c4c095d	0.012453404
134	0xbd2af99f	-0.041741963
135	0x3a1990d9	0.0005858071
136	0x3dc289b3	0.0949892
137	0xbbe653d6	-0.007029037
138	0x3caeea3f	0.021351932
139	0xbb09f993	-0.00210533
140	0x3ad318ba	0.0016105392
141	0x3b6d4bcf	0.0036208516
142	0xbc09e295	-0.008415838
143	0x3c7c5f42	0.015403571
144	0x3c52ddb8	0.012870245
145	0x3d9acfc8	0.075591624
146	0x3bf91c81	0.007602275
147	0xbc226b1b	-0.009913231
148	0x3d136322	0.035983212
149	0x3ccdb6f8	0.02511166
150	0x3c9235cd	0.01784792
151	0xbc3e9039	-0.011631065
152	0x3cfe6449	0.031053679
153	0xbbd11dff	-0.0063817496
154	0x3c1d7e45	0.0096126245
155	0x3c15b721	0.0091379
156	0xbca5d05c	-0.020240955
157	0x3dc04fcc	0.0939022
158	0x3ceca68c	0.02888801
159	0x3d02a98a	0.031899966
160	0x3c973283	0.018456703
161	0x3c6a49f0	0.014299855
162	0xbd6e2973	-0.058144998
163	0xbc29093c	-0.010317143
164	0xbd20b7d4	-0.039237812
165	0x3cf44df1	0.029822322
166	0x3d0b1186	0.03395226
167	0xbd76091b	-0.060067277
168	0x3c50fc04	0.012755398
169	0x3c1dfac1	0.009642304
170	0xbbb6ef73	-0.005582744
171	0x3c7dd545	0.015492742
172	0x3d107166	0.035264395
173	0x39423716	0.00018521803
174	0xbd14cdcd	-0.03632908
175	0x3c1dc5d1	0.009629683
176	0xbc4acaeb	-0.012377481
177	0x3c22a957	0.009928069
178	0xbbe110a6	-0.0068684397
179	0x3c6a1a4b	0.014288495
180	0x3c27c69c	0.010240223
181	0x3b80cb2c	0.00393047
182	0x3b65e7d9	0.003508082
183	0x3b87bddd	0.0041425065
184	0xbb0a2bea	-0.0021083304
185	0xbcfc3af3	-0.030789828
186	0xbcfc74da	-0.030817438
187	0xbd089143	-0.033341657
188	0xbc1f66ce	-0.0097291
189	0xbb6ed76d	-0.0036444322
190	0x3c8566ed	0.01628443
191	0xbb1126c1	-0.0022148343
192	0xbdaeecb5	-0.08541242
193	0xbc47b352	-0.012188749
194	0xbd016db4	-0.03159876
195	0x3bb8f952	0.0056449557
196	0xbc1d29cb	-0.009592484
197	0x3d1de906	0.038552307
198	0x3c0aafaa	0.008464733
199	0x3bed7e1a	0.0072476985
200	0x3e0981d6	0.13428435
201	0x38793a77	5.9420676e-05
202	0x3b81c0a0	0.0039597303
203	0x3c47c8f9	0.012193912
204	0xbc690e6a	-0.014224628
205	0xbd1bb92c	-0.03801839
206	0x3be64217	0.0070269215
207	0xbd4571c5	-0.048204202
208	0xbc2ebf77	-0.010665766
209	0xbc28d2ec	-0.010304194
210	0xba173f21	-0.00057696
211	0xbd95926b	-0.07303318
212	0xbc250335	-0.010071565
213	0x3d235cd2	0.039883442
214	0xbb3651b5	-0.0027819697
215	0x3c8ba509	0.017046468
216	0xbd27c7dc	-0.040962085
217	0xbb9ada79	-0.004725751
218	0x3cb173aa	0.021661598
219	0x3cd4cc49	0.025976317
220	0x3b25780e	0.002524856
221	0x3d086886	0.033302806
222	0xbbee0fdd	-0.0072650746
223	0xbd5c3885	-0.05376484
224	0x3ce54f9a	0.027992059
225	0xbb80fbd5	-0.0039362707
226	0xbc2cc2b1	-0.010544465
227	0xba98e0fe	-0.0011663733
228	0xbc3af0e8	-0.011409976
229	0x3ca645ee	0.020297017
230	0xbd63289a	-0.055458643
231	0xbc23a506	-0.009988075
232	0xb9ebbf38	-0.00044965162
233	0x3c7ec600	0.015550137
234	0x3ca3b8f2	0.01998565
235	0xbd4e64ee	-0.050389223
236	0x3b4c62d6	0.003118684
237	0xbc46ed4d	-0.012141538
238	0xba9d4f48	-0.0012001777
239	0x3ccccdf0	0.025000542
240	0xbc0ad268	-0.008473016
241	0xbb433c1c	-0.0029790467
242	0x3c42b57c	0.01188409
243	0x3b46abe8	0.0030314866
244	0xbaa85d90	-0.0012845267
245	0xbbd9a224	-0.006641643
246	0x3a514bc0	0.0007984005
247	0x3bb03659	0.0053775725
248	0xbb65d18c	-0.0035067527
249	0x3cad0c73	0.0211241
250	0x3a9ef9d6	0.00121289
251	0xbe570702	-0.20998767
252	0xbd64d6eb	-0.055869024
253	0x3c38525d	0.011250106
254	0x399f94fa	0.0003043784
255	0x3cf80e98	0.030280396

layer4.bias f4 [7]
0	0x3c9fc3e3	0.019502586
1	0x3c093304	0.0083739795
2	0x3d9d05fe	0.076671585
3	0x3de9b98d	0.11412344
4	0x3dadeb4d	0.08492146
5	0x3d838058	0.06420964
6	0x3c8bac62	0.017049972
